TrainedModels/biLSTM_multi.pt (torch, 838921 bytes, 10 tensors)

weight_ih_l0 f4 [40, 50]
0.46797583 -1.1750423 -0.79102993 0.26948512 0.277857 -0.23944885 -0.22651735 -1.4055561
0.095405035 -2.3707397 -0.37951845 -0.789473 -0.8197303 -0.6775772 -0.0102084875 -0.5711933
-0.38304165 -0.237724 -0.9043628 -0.035068244 1.2242739 0.7309091 1.0009545 -1.5987958
-0.8370132 -0.5908192 0.3613777 0.42773655 -0.5664837 -0.58083683 1.1032718 0.0010780279
-0.30154315 0.41263327 0.12942919 0.11157921 0.96664464 -0.88375664 0.53999436 1.4097757
-1.3006068 0.40944096 0.28466007 -0.98511314 -0.10813306 -0.7554586 -1.7129235 -0.6521613
0.15056637 -0.38048428 0.99925005 -0.05745178 -1.0230995 0.41879165 -0.8261708 1.8928257
0.42287415 -3.3673754 0.55543077 1.049346 1.9974321 0.9693545 0.06459 0.17308752
-0.000742381 1.0616764 0.09868681 0.12729128 -0.36658517 -0.33464193 -1.0010923 -0.93101686
0.85984707 -0.53639114 0.1405364 0.03646425 -1.5989232 1.3485154 0.5621889 -0.3258384
0.8229202 -0.28191817 -0.08006819 0.39751673 0.32634938 -0.4374608 1.4436474 -0.8699715
-0.2302275 0.44541585 -0.18106015 -0.88199437 -1.2082934 1.2584528 -1.2323458 -0.031127965
1.1418463 0.5247561 -0.7789941 -0.7848529 0.32636482 1.1928118 -1.3746539 0.26424596
0.14649142 -0.83772564 0.5799741 -1.2218959 -0.8867319 -0.15300748 0.048491053 0.6115215
0.076820455 -0.37984622 -0.394241 0.73868185 0.73653454 0.8901683 0.38788742 0.8735264
-1.0324299 -0.020994946 0.15028168 1.1935166 0.23183334 -0.17941509 -1.039913 -0.69208676
-0.8383334 0.3365807 0.84116423 -0.024592938 -0.9374829 -0.7560415 0.008991179 -0.14335614
0.4551567 0.30367726 -0.027695747 0.21266629 0.039685305 -0.4901237 -0.76965135 0.7552632
-0.17682877 0.8703867 0.2690845 -0.2321638 0.60812116 0.5060136 0.40815222 -0.15534292
-0.36983067 0.09010296 -0.46673438 -0.6130502 -0.9864857 -0.41396716 -1.5947632 0.5225304
-1.1038618 0.2682666 -0.79577583 -0.23989302 0.7661813 0.4665646 0.9962436 0.043082394
-1.5442889 -0.09999543 -0.050845746 0.26552832 0.33034262 0.12813272 0.27798513 -0.5713994
-0.32440317 1.0136721 0.029899059 -1.1420885 0.953003 0.7770845 0.109485194 1.7735142
-0.30005547 -0.74932986 -0.15466923 -0.012496981 1.2341837 -0.94846624 0.14326386 0.50624305
-0.018232562 -0.2814747 0.37412786 0.5115537 -0.49746963 -1.0546238 0.08169281 -0.22572386
1.008899 -0.06601865 0.42936057 -0.21767464 -0.28223988 -0.122599065 -0.6903615 -0.8215343
-0.51179016 -0.72959703 -0.11087567 -0.7974066 -1.6487539 0.31035277 -0.2299195 0.5306816
0.12352487 0.2815662 -1.2207451 0.053121716 -0.5496335 0.52057767 0.77187675 -0.106308125
0.50789356 0.15080394 0.78089243 0.19465594 0.6785878 0.018331934 1.3622353 1.3463897
0.21062636 0.7817319 -0.14484698 -0.038795024 1.0079595 0.90908146 1.2136314 0.15164694
-0.61460614 -0.7088452 0.16031402 -0.64320976 -0.12026999 0.66763407 0.07915143 -1.2914681
0.15141718 -0.060217258 0.8795357 -0.7547571 -0.0020595952 -0.08709523 0.6299519 -0.59514356
00000000: 879a ef3e c967 96bf f080 4abf f4f9 893e
00000010: 4643 8e3e 1432 75be 2af4 67be 43e9 b3bf
00000020: b763 c33d 33ba 17c0 3e50 c2be e71a 4abf
00000030: d8d9 51bf b375 2dbf 8041 27bc b939 12bf
00000040: 091e c4be ec6d 73be 5284 67bf b8a3 0fbd
00000050: 02b5 9c3f dc1c 3b3f 471f 803f 57a5 ccbf
00000060: 7f46 56bf ed3f 17bf 7f06 b93e 4900 db3e
00000070: 1305 11bf b9b1 14bf 0338 8d3f 9d4c 8d3a
00000080: dd63 9abe ab44 d33e 1689 043e a483 e43d
00000090: 0676 773f e03d 62bf 123d 0a3f 8873 b43f
000000a0: 497a a6bf 3fa2 d13e f7be 913e 6030 7cbf
000000b0: de74 ddbd bc65 41bf 1441 dbbf 0bf4 26bf
000000c0: 122e 1a3e d6ce c2be dace 7f3f 8f52 6bbd
000000d0: edf4 82bf dc6b d63e ee7f 53bf 1d48 f23f
000000e0: f682 d83e 1483 57c0 b630 0e3f f850 863f
000000f0: dbab ff3f 9e27 783f c347 843d db3d 313e
00000100: 589c 42ba 03e5 873f 4f1c ca3d a558 023e
00000110: 0db1 bbbe 3056 abbe cb23 80bf 1f57 6ebf
00000120: f01e 5c3f ee50 09bf c6e8 0f3e 8a5b 153d
00000130: 84a9 ccbf 279c ac3f 9deb 0f3f 4ad4 a6be
00000140: e6aa 523f 9457 90be cbfa a3bd 5087 cb3e
00000150: 4417 a73e ddfa dfbe 70c9 b83f 74b6 5ebf
00000160: c2c0 6bbe 8c0d e43e d567 39be 62ca 61bf
00000170: 5ca9 9abf fb14 a13f 82bd 9dbf 1300 ffbc
00000180: 0528 923f 6a56 063f 286c 47bf 1fec 48bf
00000190: 4a19 a73e 0fae 983f a9f4 afbf 3f4b 873e
000001a0: d901 163e 3075 56bf 2f79 143f 1667 9cbf
000001b0: dd00 63bf fead 1cbe 8e9e 463d ac8c 1c3f
000001c0: 0b54 9d3d 347b c2be f5d9 c9be 411a 3d3f
000001d0: 878d 3c3f 12e2 633f 2e99 c63e 6d9f 5f3f
000001e0: aa26 84bf 98fd abbc 71e3 193e 27c5 983f
000001f0: b865 6d3e 97b8 37be df1b 85bf 992c 31bf
00000200: 059d 56bf 4e54 ac3e 8a56 573f 2177 c9bc
00000210: e1fe 6fbf f08b 41bf bd4f 133c f4cb 12be
00000220: 4d0a e93e 967b 9b3e 31e2 e2bc 31c5 593e
00000230: 0f8d 223d 7ef1 fabe df07 45bf ee58 413f
00000240: 9a12 35be aad1 5e3f 72c5 893e 59bc 6dbe
00000250: d4ad 1b3f 1b8a 013f 54f9 d03e 3712 1fbe
00000260: 725a bdbe e787 b83d cff7 eebe dcf0 1cbf
00000270: 548a 7cbf 81f3 d3be 3321 ccbf 8dc4 053f
00000280: 584b 8dbf 3d5a 893e f7b7 4bbf 84a6 75be
00000290: 7524 443f 8ee1 ee3e d209 7f3f 2a77 303d
000002a0: 42ab c5bf 67ca ccbd a143 50bd 54f3 873e
000002b0: ab22 a93e 3935 033e 1154 8e3e 3b47 12bf
000002c0: 2c18 a6be 02c0 813f dfee f43c f52f 92bf
000002d0: 01f8 733f 03ef 463f c639 e03d 8302 e33f
000002e0: dfa0 99be 15d4 3fbf 9c61 1ebe 23c0 4cbc
000002f0: bbf9 9d3f afce 72bf c3b3 123e 2599 013f
00000300: 745c 95bc 741d 90be b08d bf3e 2ff5 023f
00000310: 57b4 febe eafd 86bf 8f4e a73d 2824 67be
00000320: 9a23 813f c934 87bd 26d5 db3e 1ae6 5ebe
00000330: bf81 90be 3815 fbbd 88bb 30bf 1250 52bf
00000340: ae04 03bf dfc6 3abf c912 e3bd d722 4cbf
00000350: 5e0a d3bf 8fe6 9e3e 0470 6bbe c0da 073f
00000360: 9bfa fc3d 7229 903e 6041 9cbf 2896 593d
00000370: c8b4 0cbf 9444 053f b799 453f 13b8 d9bd
00000380: 5005 023f 596c 1a3e 91e8 473f e353 473e
00000390: eeb7 2d3f da2c 963c ba5d ae3f 7f56 ac3f
000003a0: 70ae 573e 951f 483f c452 14be 88e7 1ebd
000003b0: d104 813f 90b9 683f 4658 9b3f 5649 1b3e
000003c0: d456 1dbf e176 35bf 5c29 243e 65a9 24bf
000003d0: 1d50 f6bd 11ea 2a3f 251a a23d d44e a5bf
000003e0: 1b0d 1b3e 5fa6 76bd 4029 613f c337 41bf
000003f0: 46fa 06bb fc5e b2bd 8744 213f 545b 18bf

weight_hh_l0 f4 [40, 10]
0.37960875 -0.5000977 -0.16321613 0.17853786 -0.15190291 0.39284018 -0.29347664 -0.6972178
0.24445783 -0.100219496 -0.059798658 -0.13135175 -0.124277525 -0.082214385 0.02496293 0.07045778
0.058423333 -0.08585791 -0.42209527 0.31822026 0.1620108 -0.04533999 -0.46932435 0.45763293
0.016740732 -0.4987602 -0.1950707 -0.2238908 0.26941442 0.070355676 0.14863648 -0.07660201
-0.3816764 0.05849548 0.08876282 -0.18603286 -0.093299955 -0.42220947 0.0014808242 -0.007537021
0.27383554 0.14921781 -0.33396068 0.16358075 -0.01391031 0.19862503 -0.30123806 -0.52746665
0.05764848 0.54351914 0.31647086 -0.23741111 -0.41540927 0.22808193 0.1393358 -0.099713236
-0.21986336 -0.4640592 0.053448003 0.043459084 0.38541105 -0.23287666 -0.4589965 0.31659433
-0.21070105 0.06621068 -0.09922533 -0.56643015 0.017567294 0.20639555 0.11533619 0.032756653
0.16048269 -0.19038688 -0.51270425 -0.4328403 0.110522 -0.2556715 -0.17834012 0.17960699
0.66390616 -0.410107 -0.35682714 -0.10638631 -0.17677616 -0.28661582 -0.24892998 -0.2644587
-0.12613933 0.11860437 -0.024140375 0.2521165 -0.42993873 0.04447175 0.09119915 0.06923767
0.06689988 -0.3566476 -0.25403965 0.03758183 -0.9745197 -0.38064682 -0.51511383 0.009307425
-0.075909935 -0.265301 -0.43076792 -0.3915085 0.29347327 0.19195725 -0.64642745 -0.29209945
-0.7033044 0.16132328 -0.53234345 0.045777082 -0.039062083 -0.5042892 0.48560825 0.32387063
0.12475919 0.011853725 -0.03358134 0.24506174 0.04527851 -0.095151626 -0.375751 -0.35389814
0.14112844 0.3362266 0.116573066 -0.14235863 -0.36512795 0.20274742 -0.21607417 -0.20896351
-0.29838967 -0.23571225 0.451769 0.12119237 -0.20627956 0.03462384 -0.11328608 0.014571902
-0.0073461905 -0.3045102 -0.1770163 -0.40007874 0.22180763 0.33631703 -0.09249966 -0.0054508643
-0.21380699 0.2711142 -0.058404066 0.24467675 -0.45060351 -0.19731727 -0.040728442 0.11753749
-0.026501851 0.3350869 -0.66368705 0.33083564 0.019121768 -0.37292403 0.14231284 -0.31679216
0.056414004 0.4640817 0.11567009 -0.3087841 0.01575438 -0.07432654 0.12594531 -0.38915193
-0.20057175 -0.047885202 -0.04142505 0.03679958 -0.09147899 -0.27366737 -0.6233122 -0.021576375
-0.12642653 0.330498 -0.2192608 0.021478388 0.1862135 0.5372338 0.3119838 0.62502795
0.058613386 -0.39489385 0.4392479 0.6064253 0.55345976 -0.038970727 -0.08778358 -0.03778322
-0.09286636 -0.048575412 -0.08976512 0.1549337 0.094019085 -0.21001676 0.26964027 -0.19410932
0.40089327 0.29847044 -0.07950088 -0.16459693 -0.02237605 0.20746678 0.044610243 -0.1351263
0.13920347 0.02334409 0.059356835 0.16158177 0.1417366 -0.30567744 -0.073713265 0.027958494
0.028147152 -0.012119654 0.011506797 -0.111447155 0.14065114 -0.2781454 0.034345407 0.04008837
-0.040468767 -0.06604339 -0.097369544 -0.23948845 -0.08133345 -0.18854755 -0.07390442 -0.18795155
0.16008517 0.06228323 -0.3466263 0.32330388 -0.0896695 -0.17974055 -0.20869853 0.119434394
0.31875914 0.028188115 -0.17743236 0.026841499 0.18546914 0.035196867 -0.009281607 0.015598747
00000000: 145c c23e 6706 00bf 2122 27be a1d2 363e
00000010: 708c 1bbe 5922 c93e 9242 96be de7c 32bf
00000020: 2753 7a3e e13f cdbd 70ef 74bd 1381 06be
00000030: 3785 febd 0460 a8bd 0f7f cc3c 2b4c 903d
00000040: 4e4d 6f3d 46d6 afbd df1c d8be c4ed a23e
00000050: 29e6 253e 6db6 39bd 484b f0be dd4e ea3e
00000060: dc23 893c 7f5d ffbe 9dc0 47be a143 65be
00000070: b0f0 893e a316 903d 2934 183e 84e1 9cbd
00000080: 176b c3be f598 6f3d 48c9 b53d 667f 3ebe
00000090: 0c14 bfbd d72b d8be 3718 c23a 1df9 f6bb
000000a0: 2c34 8c3e 8ecc 183e e5fc aabe b681 273e
000000b0: 12e8 63bc 5c64 4b3e e03b 9abe 0e08 07bf
000000c0: d020 6c3d 1224 0b3f 7808 a23e e61b 73be
000000d0: 86b0 d4be 4f8e 693e 0bae 0e3e 7436 ccbd
000000e0: dc23 61be 2b99 edbe 4bec 5a3d 2702 323d
000000f0: 9954 c53e 3877 6ebe 9701 ebbe a718 a23e
00000100: 04c2 57be 7799 873d a636 cbbd 9101 11bf
00000110: 49e9 8f3c 5b59 533e 6135 ec3d d72b 063d
00000120: 9355 243e c7f4 42be 9640 03bf 3e9d ddbe
00000130: 5c59 e23d 60e7 82be cb9e 36be e5ea 373e
00000140: c1f5 293f 8bf9 d1be 0cb2 b6be 11e1 d9bd
00000150: cf04 35be 4fbf 92be 80e7 7ebe 2167 87be
00000160: ab2a 01be d9e6 f23d 09c2 c5bc 6a15 813e
00000170: ee20 dcbe 0228 363d 9fc6 ba3d 7bcc 8d3d
00000180: ce02 893d 849a b6be 7c11 82be 68ef 193d
00000190: 207a 79bf 24e4 c2be 80de 03bf 2b7e 183c
000001a0: ab76 9bbd 88d5 87be 9d8d dcbe cd73 c8be
000001b0: 2142 963e 7190 443e 457c 25bf 0f8e 95be
000001c0: c20b 34bf ee31 253e a947 08bf c080 3b3d
000001d0: 90ff 1fbd 1919 01bf a5a1 f83e 5fd2 a53e
000001e0: bf81 ff3d 2036 423c 968c 09bd 77f1 7a3e
000001f0: f575 393d dbde c2bd 6f62 c0be 2332 b5be
00000200: f983 103e e525 ac3e dcbd ee3d 76c6 11be
00000210: 0df2 babe 059d 4f3e 8c42 5dbe 88fa 55be
00000220: 88c6 98be 8d5e 71be 444e e73e b533 f83d
00000230: f33a 53be bad1 0d3d 8802 e8bd fdbe 6e3c
00000240: 50b8 f0bb c3e8 9bbe c343 35be 1fd7 ccbe
00000250: 8a21 633e bf31 ac3e 7670 bdbd 2a9d b2bb
00000260: 38f0 5abe 7bcf 8a3e 1a39 6fbd 8b8c 7a3e
00000270: 81b5 e6be 8a0d 4abe ded2 26bd 7fb7 f03d
00000280: 691a d9bc 8390 ab3e 65e7 29bf 4a63 a93e
00000290: 41a5 9c3c e6ef bebe 75ba 113e 9532 a2be
000002a0: 5f12 673d 1e9c ed3e 71e4 ec3d f318 9ebe
000002b0: 540f 813c 8338 98bd cff7 003e ec3e c7be
000002c0: ae62 4dbe 4623 44bd 50ad 29bd 28bb 163d
000002d0: 5659 bbbd 211e 8cbe 6391 1fbf f0c0 b0bc
000002e0: f575 01be 0937 a93e e785 60be 72f3 af3c
000002f0: c0ae 3e3e 2888 093f 57bc 9f3e d501 203f
00000300: 9714 703d 872f cabe 1ae5 e03e b03e 1b3f
00000310: 8aaf 0d3f c59f 1fbd e1c7 b3bd 94c2 1abd
00000320: b830 bebd 03f7 46bd c6d6 b7bd f1a6 1e3e
00000330: 148d c03d a20e 57be 4a0e 8a3e 98c4 46be
00000340: e241 cd3e 1ed1 983e 5bd1 a2bd 198c 28be
00000350: fa4d b7bc 2c72 543e 3bb9 363d 8c5e 0abe
00000360: 5b8b 0e3e 1b3c bf3c 2720 733d b175 253e
00000370: 6623 113e c181 9cbe fbf6 96bd 3609 e53c
00000380: db94 e63c 8391 46bc 0187 3c3c 683e e4bd
00000390: da06 103e 1369 8ebe c5ad 0c3d b433 243d
000003a0: 94c2 25bd c241 87bd af69 c7bd 763c 75be
000003b0: 2792 a6bd 9c12 41be 335b 97bd 5f76 40be
000003c0: 5eed 233e b31c 7f3d 0179 b1be 1688 a53e
000003d0: a5a4 b7bd e80d 38be 11b5 55be 059a f43d
000003e0: 6634 a33e c3ea e63c d4b0 35be b4e2 db3c
000003f0: 9feb 3d3e 972a 103d e211 18bc e391 7f3c

bias_ih_l0 f4 [40]
-0.989807 -1.3517087 -1.0412636 -1.5064061 -1.8445756 -0.9565361 -1.8273568 0.41301075
-1.3929542 0.066970035 -1.1695175 -0.48509565 -1.3178895 -0.82956356 -1.0790067 -0.6972861
-0.60009253 -0.46535054 -0.6071886 -0.40212303 -1.2808793 -1.2695035 -0.41250548 -0.0311803
-0.9049683 0.008129367 -0.3387927 0.6819446 0.9202238 -0.21455356 -1.0328103 -1.302269
-1.0078483 -1.6875939 -0.77239245 -1.1481359 -1.0647479 -1.2305121 -1.5894736 -1.237781
00000000: fe63 7dbf ca04 adbf 2048 85bf ead1 c0bf
00000010: 0e1b ecbf 8ddf 74bf d4e6 e9bf 2576 d33e
00000020: 534c b2bf 9627 893d c0b2 95bf 755e f8be
00000030: 9ab0 a8bf 475e 54bf e41c 8abf 5881 32bf
00000040: aa9f 19bf 6d42 eebe b670 1bbf 12e3 cdbe
00000050: daf3 a3bf 177f a2bf eb33 d3be d46d ffbc
00000060: 01ac 67bf 0931 053c 3d76 adbe ec93 2e3f
00000070: c993 6b3f eeb3 5bbe 2133 84bf c0b0 a6bf
00000080: 2c01 81bf 1403 d8bf 83bb 45bf 1ef6 92bf
00000090: a949 88bf 6c81 9dbf df73 cbbf 9c6f 9ebf

bias_hh_l0 f4 [40]
-0.9869091 -0.991805 -0.77390254 -1.4641984 -1.8829533 -1.1942143 -1.9015222 0.535011
-1.5906702 0.038830757 -0.73848325 -0.61116064 -1.5538055 -0.8985007 -0.8418493 -0.806638
-0.8571843 -0.2469836 -1.0109333 -0.3251292 -1.4087763 -0.69505703 -0.2865612 0.14769709
-1.254452 -0.09672522 -0.21878211 0.67284626 0.7473296 -0.30397794 -1.2258228 -1.3166865
-1.5580617 -1.3829458 -0.8218835 -1.3521917 -0.8606641 -0.8883589 -1.9862851 -1.7136399
00000000: 13a6 7cbf efe6 7dbf 7a1e 46bf da6a bbbf
00000010: 9d04 f1bf 04dc 98bf 1465 f3bf 7bf6 083f
00000020: 159b cbbf 000d 1f3d 3d0d 3dbf 0675 1cbf
00000030: 19e3 c6bf 2404 66bf 7083 57bf d47f 4ebf
00000040: 6e70 5bbf 45e9 7cbe 4366 81bf 5677 a6be
00000050: c852 b4bf 42ef 31bf 26b8 92be e83d 173e
00000060: e291 a0bf df17 c6bd 6b08 60be a73f 2c3f
00000070: fe50 3f3f ffa2 9bbe c3e7 9cbf 2f89 a8bf
00000080: 916e c7bf 5e04 b1bf f566 52bf 9e14 adbf
00000090: 7c54 5cbf 7d6b 63bf 973e febf 8d58 dbbf

weight_ih_l0_reverse f4 [40, 50]
1.3327855 -1.2920823 -1.338783 -0.304616 -0.98119044 1.7470431 -0.39905098 -1.9191802
0.5360835 0.62843686 1.4577999 0.86159486 -0.21314067 0.26599672 -0.6054132 0.33713698
0.277066 0.48380816 1.0593376 0.22443433 0.31387946 0.29489484 0.5228267 -0.7909782
-0.39612222 -0.29076615 -0.24800678 0.24630712 0.49756584 -0.6080887 1.1828583 -0.8578331
-0.13840699 -2.0079706 -0.5772558 0.39848778 -0.51571006 -0.3844762 0.26128542 0.9961538
-0.013823574 -1.035314 -0.022787545 -0.31020355 -1.2922415 -0.3842677 -0.45091483 1.9414603
0.16830318 0.045931168 0.14565471 0.55477387 -0.9788885 0.456711 0.118945695 0.08498491
0.5526722 0.5468653 -1.1183137 0.19830817 -0.85701203 0.45921287 -0.741912 -0.8456056
1.1034538 -0.47117645 -0.02261327 -0.42400178 0.30905783 0.6034721 0.3078149 0.46129262
0.35309687 -0.44810736 0.72728103 -0.6290874 -0.74933285 -1.1889682 -0.38455653 -0.22028057
1.0609767 0.7586454 -0.59301037 -0.4468204 0.581142 0.14676327 0.69188184 -0.7725209
-0.57994384 -0.58834285 -0.8585783 0.24252668 -0.25167322 0.28956053 -0.14797041 -0.385439
-0.6281967 1.4329697 -0.09519554 0.052524533 0.74487233 -0.42274126 0.028969057 -0.31664106
0.5796231 -0.23399451 -0.8957025 0.44759896 -0.7340494 -0.57696235 -0.5509314 -0.09372835
0.34285924 0.10916271 0.9918873 1.0570985 0.18019186 -1.0432612 -1.155399 0.2470907
-0.6185019 0.0013581454 0.53100455 0.45941 0.06878369 -0.82230085 0.30515584 0.0043854625
-0.22493666 -0.5589607 0.25257823 0.33478457 -1.3407558 0.19965598 0.40639687 -0.39095467
0.30895093 -0.8479325 -0.3533057 0.020424722 -0.09527342 0.7432154 -0.51160556 0.15781748
0.79887813 0.32822165 -0.74680007 -0.2536016 -0.052513205 -0.86462224 -0.2113266 -0.24187109
-0.25991526 -0.6409181 0.053793196 -0.97989595 -0.0010941273 0.034407638 -0.6012511 -0.5186565
-0.41640097 -0.20885698 -0.5576434 -0.13696992 0.4567557 0.24093749 -0.14491647 0.71937865
-0.45419982 -0.083535686 0.2956713 0.32996812 -0.4427376 -0.38951078 0.48895815 -0.47566316
0.38195518 -0.35744217 -0.2220757 -0.5823815 0.83588165 0.42064866 -0.72000074 0.073507674
-0.08317726 0.17160827 0.21164466 0.27123535 0.19282451 -0.762658 -0.5420784 -0.3821669
0.22808279 -0.22642374 -0.29980057 0.0008162661 -0.14958085 -1.1823325 -0.17662248 0.040220078
0.12604699 0.41805372 -0.6135979 1.2797408 -0.4582065 -0.59313565 -0.5384989 -1.8252931
0.10777982 -0.24207179 1.1770445 1.172235 -0.32509953 -1.2286114 -1.5463519 0.66220224
2.538775 1.0030103 -1.8372144 -0.89040667 -0.792842 -1.3565032 0.52022856 0.022541402
-0.8031099 -0.16788827 -0.65559256 0.5667626 -0.68846 -1.5486921 0.82234824 0.08103722
-0.08675409 0.23548009 1.9068766 -1.2857691 0.27656412 0.003326844 1.0410789 1.4099079
-0.026352044 0.9420891 -0.58614177 0.24450198 -0.47129256 0.40477136 -0.07850616 0.019788612
-0.30078754 0.18671656 -0.22595643 0.1670931 -0.18356201 -0.016636584 -0.02363043 0.23440593
00000000: b798 aa3f f462 a5bf 3e5d abbf a1f6 9bbe
00000010: 4c2f 7bbf 1c9f df3f 6950 ccbe b2a7 f5bf
00000020: c53c 093f 3de1 203f 3099 ba3f 7b91 5c3f
00000030: 8c41 5abe b930 883e 5cfc 1abf 389d ac3e
00000040: 98db 8d3e b4b5 f73e 6098 873f 1dd2 653e
00000050: cfb4 a03e 75fc 963e f8d7 053f 8c7d 4abf
00000060: 88d0 cabe 4ddf 94be 7df5 7dbe ef37 7c3e
00000070: f3c0 fe3e b3ab 1bbf e767 973f f39a 5bbf
00000080: 90ba 0dbe 9782 00c0 09c7 13bf 9706 cc3e
00000090: 9305 04bf 11da c4be 34c7 853e ef03 7f3f
000000a0: 467c 62bc 2b85 84bf f2ac babc 00d3 9ebe
000000b0: 2b68 a5bf bcbe c4be 4fde e6be c581 f83f
000000c0: ab57 2c3e 5222 3c3d 8226 153e a905 0e3f
000000d0: 7098 7abf 06d6 e93e cd99 f33d 920c ae3d
000000e0: ed7b 0d3f 5dff 0b3f e724 8fbf 4c11 4b3e
000000f0: 2465 5bbf f31d eb3e f2ed 3dbf 9c79 58bf
00000100: f93d 8d3f 0a3e f1be 773f b9bc c316 d9be
00000110: d43c 9e3e 267d 1a3f ea99 9d3e 8c2e ec3e
00000120: 1dc9 b43e 546e e5be 172f 3a3f df0b 21bf
00000130: 47d4 3fbf 1c30 98bf 98e4 c4be 3b91 61be
00000140: 16ce 873f 9636 423f 87cf 17bf a5c5 e4be
00000150: b9c5 143f 1c49 163e 2b1f 313f eec3 45bf
00000160: 3377 14bf a39d 16bf cacb 5bbf ea58 783e
00000170: 50db 80be 4741 943e 8e85 17be 4358 c5be
00000180: 80d1 20bf 8d6b b73f e1f5 c2bd f723 573d
00000190: f4af 3e3f 8b71 d8be 8450 ed3c c71e a2be
000001a0: 2e62 143f 429c 6fbe c24c 65bf b12b e53e
000001b0: a9ea 3bbf ceb3 13bf d709 0dbf a6f4 bfbd
000001c0: 3f8b af3e b390 df3d 53ec 7d3f 014f 873f
000001d0: 3784 383e 9589 85bf 1de4 93bf 5805 7d3e
000001e0: 2456 1ebf cc03 b23a eaef 073f ca37 eb3e
000001f0: 77de 8c3d 4f82 52bf 633d 9c3e edb3 8f3b
00000200: cc55 66be 0c18 0fbf ef51 813e e268 ab3e
00000210: e39d abbf 9e72 4c3e 4013 d03e 362b c8be
00000220: d12e 9e3e 1b12 59bf 7ce4 b4be bf51 a73c
00000230: b61e c3bd 5d43 3e3f 95f8 02bf e89a 213e
00000240: 4783 4c3f ab0c a83e 4a2e 3fbf 12d8 81be
00000250: 1618 57bd e257 5dbf 0066 58be 0ead 77be
00000260: 9d13 85be 3513 24bf 4156 5c3d 76da 7abf
00000270: d268 8fba 06ef 0c3d 98eb 19bf acc6 04bf
00000280: 8232 d5be 9bde 55be b8c1 0ebf d841 0cbe
00000290: e2db e93e 51b8 763e fc64 14be 3329 383f
000002a0: e18c e8be c214 abbd 3b62 973e 95f1 a83e
000002b0: 81ae e2be f56d c7be b958 fa3e 1f8a f3be
000002c0: a18f c33e a902 b7be d067 63be f416 15bf
000002d0: 57fc 553f 435f d73e f851 38bf 318b 963d
000002e0: d758 aabd 14ba 2f3e 61b9 583e 5cdf 8a3e
000002f0: ca73 453e 8e3d 43bf a6c5 0abf 61ab c3be
00000300: 898e 693e a0db 67be 767f 99be b1fa 553a
00000310: b92b 19be ac56 97bf 86dc 34be cfbd 243d
00000320: 7612 013e 230b d63e c114 1dbf 8cce a33f
00000330: 0b9a eabe bdd7 17bf 10db 09bf 34a3 e9bf
00000340: abbb dc3d abe1 77be 65a9 963f cc0b 963f
00000350: 7273 a6be 2343 9dbf dcee c5bf 1686 293f
00000360: 4a7b 2240 a462 803f d729 ebbf b1f1 63bf
00000370: b1f7 4abf e6a1 adbf b32d 053f bfa8 b83c
00000380: 9c98 4dbf e7ea 2bbe ead4 27bf 5b17 113f
00000390: ea3e 30bf 8b3b c6bf 6a85 523f d8f6 a53d
000003a0: 21ac b1bd b121 713e 8814 f43f 1594 a4bf
000003b0: d099 8d3e 2e07 5a3b 1342 853f dd77 b43f
000003c0: 3ee0 d7bc c02c 713f 630d 16bf ba5e 7a3e
000003d0: 424d f1be 313e cf3e d6c7 a0bd ba1b a23c
000003e0: d300 9abe a032 3f3e 1f61 67be 741a 2b3e
000003f0: aef7 3bbe 7249 88bc 9b94 c1bc 1c08 703e

weight_hh_l0_reverse f4 [40, 10]
0.17848907 -0.19284011 0.12780623 0.2614125 0.26255277 0.34372553 0.13172188 0.07928481
0.20585531 0.106852144 0.1759678 0.41426128 -0.17831671 0.0739677 -0.3347898 -0.00017846661
-0.22642253 -0.17581776 0.15101354 0.02784117 0.288607 -0.014868818 0.51391786 0.06396896
-0.4057831 -0.041631445 -0.57748306 0.043922003 -0.13011484 0.2695562 0.26687524 0.10876372
0.13839807 -0.48663306 -0.7887414 0.31997162 -0.2411242 -0.012312385 -0.30897185 0.5685402
-0.1384946 -0.11003414 0.44625777 -0.2822735 -0.0725578 0.08078108 -0.108528696 0.25484666
-0.098200016 0.25410748 0.2341237 -0.3748036 -0.23221058 0.30672833 0.15849064 0.17260024
-0.06907224 0.20611703 -0.13480003 0.10798093 -0.15479834 -0.2499352 -0.15482822 -0.016886927
-0.07354173 -0.045517437 -0.23673385 -0.23144874 0.009417417 0.14697511 -0.22219633 -0.12752658
0.4680859 0.11783414 0.093080364 0.30588588 -0.09162379 0.22272475 0.36298734 0.30487207
0.024683265 -0.16590919 0.5347163 -0.52067316 -0.24546383 0.25033292 0.31384584 0.23268364
-0.1971967 0.29953304 -0.2490257 0.03865716 0.19965965 0.1409246 0.25208747 0.01970292
-0.15231583 0.119705275 -0.027152754 0.14043535 -0.41768083 0.25937286 0.31926203 -0.42165825
-0.42007956 0.35351798 -0.0033063807 -0.2415961 -0.43271276 0.35321254 -0.37589803 0.5053444
0.45821208 0.0033315448 -0.33582258 0.21213931 0.05917122 0.26747325 -0.13013336 0.16900991
-0.15010794 0.056713734 -0.27856857 0.25281903 -0.7705289 0.3338515 0.0036362347 0.029677445
-0.14782603 0.17839259 0.20019665 0.09750806 0.23505478 0.23198307 -0.20325565 0.17117092
0.34190854 0.11724544 0.49667758 -0.040255368 0.042887695 -0.30236235 -0.15320566 0.3878585
0.34717318 -0.34452575 0.27179146 0.087472364 0.020090455 -0.23903759 0.08432157 -0.4007067
-0.056837622 -0.47912562 -0.28738073 -0.22148961 0.38967526 -0.49029964 -0.013833064 0.10637694
-0.18564835 -0.13934785 0.011890746 -0.5865248 0.28181535 0.04675395 0.2187743 0.022142662
-0.3926493 -0.04666908 -0.025244331 0.20935811 0.40671095 0.5109777 0.10689545 0.2591061
0.22190875 0.57598597 0.13081887 0.11821691 -0.28162116 0.22279884 0.3759747 0.20836495
-0.054583367 -0.07693213 0.21850081 0.12004033 0.25200263 0.40654093 -0.34705672 0.08784148
0.05216533 0.2563851 0.05934148 0.079568826 0.481065 0.26444674 0.49958974 -0.5471588
-0.06765667 0.20228547 0.07884523 -0.15073597 -0.22877559 0.28058997 -0.089919135 0.13736744
0.19485109 -0.07680662 -0.10755557 0.18014026 -0.048522707 0.06506572 0.28221813 -0.26043636
0.008136382 0.048028763 -0.0011355339 0.22990963 -0.44291064 -0.021415016 -0.41349408 -0.39153284
0.022810705 0.1593807 -0.13423201 -0.12958992 0.3448299 -0.06980346 -0.0031890706 0.010451658
-0.06559021 -0.059465516 -0.07362501 0.1801645 -0.18927002 -0.020500172 0.14359759 0.019181889
0.15923189 -0.119269125 0.21355997 -0.21572685 -0.07040486 0.17347108 0.06118721 0.4697577
-0.032461014 0.21109805 -0.14633365 -0.25097573 0.36703792 0.1590252 0.0020311067 -0.7695974
00000000: d7c5 363e e177 45be a3df 023e dcd7 853e
00000010: 516d 863e cbfc af3e 1ae2 063e 1360 a23d
00000020: bccb 523e 4cd5 da3d e730 343e 0e1a d43e
00000030: a898 36be 617c 973d 9269 abbe c422 3bb9
00000040: 4fdb 67be 9209 34be 4ba3 1a3e 2a13 e43c
00000050: 4cc4 933e 589c 73bc 1f90 033f 2802 833d
00000060: cdc2 cfbe bc85 2abd eed5 13bf 8fe7 333d
00000070: d33c 05be 4503 8a3e dfa3 883e 83bf de3d
00000080: 39b8 0d3e f827 f9be f5ea 49bf 52d3 a33e
00000090: 43e9 76be e3b9 49bc 8f31 9ebe da8b 113f
000000a0: 87d1 0dbe 9459 e1bd e67b e43e 2786 90be
000000b0: 2f99 94bd 8d70 a53d 4b44 debd 437b 823e
000000c0: 171d c9bd 601a 823e 20be 6f3e 42e6 bfbe
000000d0: 9cc8 6dbe 7f0b 9d3e 5f4b 223e 1ebe 303e
000000e0: bf75 8dbd 5810 533e 0509 0abe 1b25 dd3d
000000f0: 7583 1ebe 03ef 7fbe 4a8b 1ebe 7456 8abc
00000100: 0c9d 96bd 7e70 3abd 5c6a 72be e600 6dbe
00000110: 834b 1a3c a580 163e 6f87 63be 5496 02be
00000120: f5a8 ef3e 0753 f13d eba0 be3d 139d 9c3e
00000130: 41a5 bbbd f511 643e 7ad9 b93e 3118 9c3e
00000140: 8f34 ca3c 19e4 29be 2be3 083f d64a 05bf
00000150: df5a 7bbe a32b 803e 67b0 a03e 9f44 6e3e
00000160: efed 49be 655c 993e 9800 7fbe f856 1e3d
00000170: 9473 4c3e 8a4e 103e 9c11 813e 0568 a13c
00000180: aef8 1bbe 0a28 f53d 746f debc 49ce 0f3e
00000190: 43da d5be 85cc 843e 5076 a33e 97e3 d7be
000001a0: ab14 d7be 4f00 b53e ddaf 58bb f864 77be
000001b0: 878c ddbe 46d8 b43e b575 c0be 405e 013f
000001c0: c69a ea3e 0c56 5a3b f0f0 abbe 0c3b 593e
000001d0: 855d 723d 41f2 883e ae41 05be ef10 2d3e
000001e0: e5b5 19be a94c 683d 8aa0 8ebe 7f71 813e
000001f0: 6241 45bf 95ee aa3e e54d 6e3b 1d1e f33c
00000200: b55f 17be 8cac 363e 5a00 4d3e 4eb2 c73d
00000210: 33b2 703e f88c 6d3e 4022 50be 6e47 2f3e
00000220: a30e af3e 611e f03d 864c fe3e d0e2 24bd
00000230: 02ab 2f3d 3dcf 9abe f2e1 1cbe 6495 c63e
00000240: afc0 b13e ae65 b0be 4028 8b3e b624 b33d
00000250: bd94 a43c 45c6 74be cab0 ac3d 6e29 cdbe
00000260: 91ce 68bd f44f f5be 9123 93be 2cce 62be
00000270: 8483 c73e 8e08 fbbe 13a4 62bc 27dc d93d
00000280: 9a1a 3ebe 34b1 0ebe 67d1 423c 7d26 16bf
00000290: 1a4a 903e 1281 3f3d 5f06 603e 8764 b53c
000002a0: 5409 c9be 1428 3fbd 33cd cebc f961 563e
000002b0: 6b3c d03e 6fcf 023f 00ec da3d 8ea9 843e
000002c0: 0c3c 633e d173 133f 62f5 053e b51b f23d
000002d0: a630 90be 6125 643e c27f c03e 9f5d 553e
000002e0: cf92 5fbd 988e 9dbd adbe 5f3e b4d7 f53d
000002f0: 7d06 813e 2226 d03e 6bb1 b1be 3ce6 b33d
00000300: 50ab 553d e844 833e 0d10 733d fbf4 a23d
00000310: 274e f63e 9065 873e 3aca ff3e 9912 0cbf
00000320: 958f 8abd ec23 4f3e 9c79 a13d 885a 1abe
00000330: 2644 6abe 7da9 8f3e 8627 b8bd 0daa 0c3e
00000340: 0b87 473e ca4c 9dbd 1846 dcbd b076 383e
00000350: bfbf 46bd 2d41 853d e57e 903e ea57 85be
00000360: 764e 053c cfb9 443d 32d6 94ba 6e6d 6b3e
00000370: 2fc5 e2be 8b6e afbc 7fb5 d3be fe76 c8be
00000380: 84dd ba3c b234 233e 1e74 09be 38b3 04be
00000390: 8b8d b03e 1ef5 8ebd baff 50bb 6e3d 2b3c
000003a0: 2954 86bd 1d92 73bd b6c8 96bd 0b7d 383e
000003b0: 00d0 41be faef a7bc 3f0b 133e 5623 9d3c
000003c0: af0d 233e 5f43 f4bd 77af 5a3e 80e7 5cbe
000003d0: 6c30 90bd 67a2 313e 719f 7a3d 1584 f03e
000003e0: d7f5 04bd 162a 583e 7dd8 15be e47f 80be
000003f0: 65ec bb3e 81d7 223e 511c 053b 5604 45bf

bias_ih_l0_reverse f4 [40]
-1.0973446 -1.0701532 -0.6871711 -0.82731813 -1.0285225 -0.10106418 0.23557718 -1.431886
-1.2086791 -1.1669563 -0.47741872 -0.65215486 -1.2095954 -0.30133542 -0.22202177 -0.84303313
-0.03657059 -0.53818244 -0.8225851 -0.2798102 0.017166102 0.6202981 0.7402718 0.6457776
-0.13701941 0.32400903 -0.59070283 0.7703607 0.060223907 0.19762039 -1.4157906 -0.6123137
-0.97411424 -0.49874383 -1.1293248 -1.7360613 -1.4461466 -1.0595487 -1.979703 -1.5912
00000000: ca75 8cbf c8fa 88bf 72ea 2fbf 1fcb 53bf
00000010: a0a6 83bf bdfa cebd 253b 713e 0a48 b7bf
00000020: ffb5 9abf d35e 95bf 3a70 f4be 9ff3 26bf
00000030: 06d4 9abf a348 9abe ad59 63be 05d1 57bf
00000040: 0bcb 15bd 53c6 09bf f094 52bf 4843 8fbe
00000050: ed9f 8c3c dbcb 1e3f 7482 3d3f ae51 253f
00000060: d14e 0cbe 83e4 a53e 4d38 17bf 5c36 453f
00000070: 58ad 763d 005d 4a3e a038 b5bf 97c0 1cbf
00000080: 8d5f 79bf 5a5b ffbe b78d 90bf 4237 debf
00000090: 551b b9bf 4b9f 87bf e866 fdbf 71ac cbbf

bias_hh_l0_reverse f4 [40]
-0.70026493 -0.9469639 -1.1408503 -0.8468071 -1.4865037 -0.14291498 0.3285796 -1.5236725
-1.4260038 -1.0001191 -0.78361475 -0.6032752 -0.6921822 -0.40365195 -0.2662117 -0.6552202
-0.088804245 -0.25121948 -0.6628715 -0.81253874 0.076681316 1.1505 0.6562119 1.2197263
0.033872966 0.530093 -0.6842162 0.70955056 0.1958806 -0.21899097 -1.286505 -0.14166453
-0.7592177 -0.8302636 -1.3174461 -1.3862453 -1.4660158 -1.367116 -2.4491136 -1.7431191
00000000: 9044 33bf 3a6c 72bf 6207 92bf 5ac8 58bf
00000010: c145 bebf 4e58 12be 963b a83e b307 c3bf
00000020: 4b87 b6bf e703 80bf fa9a 48bf 3e70 1abf
00000030: da32 31bf 78ab cebe e64c 88be 83bc 27bf
00000040: 00df b5bd d79f 80be f2b1 29bf 8a02 50bf
00000050: 180b 9d3d 9643 933f 81fd 273f fe1f 9c3f
00000060: 61be 0a3d 2db4 073f cb28 2fbf 1ba5 353f
00000070: ed94 483e 2b3f 60be 32ac a4bf 8210 11be
00000080: 175c 42bf 288c 54bf 13a2 a8bf 7c70 b1bf
00000090: 68a6 bbbf a8fd aebf 47be 1cc0 871e dfbf

weight f4 [9699, 20]
1.9504029 -0.80101246 1.8358637 1.8932898 -1.1730913 1.0508533 1.8769138 -0.33963555
-1.0665754 0.1472448 -1.847732 -1.7774485 0.047716305 -1.4973773 1.2140849 0.48109117
-0.3595603 -1.0022718 -0.741108 -1.3258598 2.1175818 1.5674866 -1.5274811 -2.08216
0.59208107 1.088072 1.3478161 1.259429 -1.3334848 1.6336262 1.7996815 -0.6698803
-1.2237821 -0.553565 -1.5247117 -1.4246138 -1.0030907 -1.9562205 1.4999621 2.4662833
0.11689717 -0.14442028 -0.16711085 0.025357913 -0.013287972 -0.050898425 -0.2079016 -0.08428028
0.14120592 -0.17045379 -0.07600633 -0.056558404 -0.12996253 0.09303908 -0.2074252 -0.061153375
0.14383718 -0.1491324 0.050997537 0.19203125 0.13590254 0.008926318 -0.040610384 0.023816133
-0.21202117 0.0660986 0.15299307 0.2220174 -0.034902852 -0.0673086 -0.13285302 0.30305597
0.15777038 0.25498524 0.24068148 -0.16537549 -0.26684675 0.02771593 -0.0041049095 0.21770005
-0.31345773 -1.7128406 1.4764111 2.5037014 -0.19392997 -1.9173021 -0.9978723 1.7557306
1.1702253 1.1587712 1.2286575 -0.8569471 -0.739443 -1.8414718 -1.138558 -0.12509547
0.06490489 -2.4832377 2.3058052 -1.7944742 -0.27531624 1.8351977 0.93342626 1.5452136
1.7054378 1.2922734 1.300823 1.6365128 1.2217678 0.6068738 0.7351192 0.45786402
-1.39521 -0.1253667 1.8040795 1.1317222 -0.81646883 -1.366893 2.3491673 -2.367373
-0.12889178 -0.01592794 -0.11272338 -0.02858149 0.0051440326 -0.12050494 -0.18994084 -0.22525708
0.08798693 -0.021052912 -0.15225168 0.030223979 -0.17800589 0.085949264 -0.13542177 -0.037206605
-0.022264274 -0.02752466 0.10314834 -0.16238679 1.3005469 2.065586 0.72387224 -2.0375283
2.3007421 -2.1052382 1.8184643 -1.6424373 -1.1350192 -0.77469546 1.9942259 0.40825757
0.39991465 0.16366588 1.8168468 0.3436107 1.9917057 -1.7410678 2.9724646 1.0054878
0.69435716 0.24683923 -1.8752513 0.19457571 0.34634492 0.3355558 0.14121984 1.3887813
1.7129323 0.4254964 0.22801304 0.43290025 1.6077728 0.17582528 0.17567082 -0.6896821
0.7423276 1.5629776 -0.3988274 -1.9256939 0.42120194 0.17962821 2.3857415 0.19610071
2.0291715 -0.5326885 -1.7089144 -2.0758657 1.8670332 -0.19595148 -0.8930038 1.2573156
0.19675729 -0.9225124 -0.30050638 -0.2270495 -2.1664875 -0.7057128 2.80554 0.571358
-0.14571592 0.20308304 0.22621644 -0.0136764245 0.010961619 0.14106964 0.09216738 0.005089969
-0.20256345 -0.18679799 0.012382078 0.1013358 -0.035122264 0.1524183 0.20391394 0.0011836853
0.19998601 -0.123224914 -0.15276462 0.048554577 2.2758393 1.7770156 -0.024057021 2.4959977
1.1117806 1.5909377 0.7902526 1.4700369 -0.97439516 0.42468262 0.5378702 -2.3110435
-1.4985918 0.23123202 2.0255275 -1.6033955 2.262122 -0.27236813 1.3826851 2.0887966
1.8198289 -1.0642292 0.17925254 -1.812392 1.6171238 0.12732004 -0.90424335 0.7281423
-1.4088947 0.28423363 2.021381 0.26579213 -0.80246824 -2.1547897 1.2226105 -1.364179
00000000: cda6 f93f 270f 4dbf 95fd ea3f 5257 f23f
00000010: db27 96bf 5c82 863f b63e f03f b6e4 adbe
00000020: 8b85 88bf 57c7 163e 7b82 ecbf 6f83 e3bf
00000030: 2c72 433d 0faa bfbf 2267 9b3f 9551 f63e
00000040: 4a18 b8be 714a 80bf 41b9 3dbf c6b5 a9bf
00000050: 7686 0740 67a3 c83f 8084 c3bf 1c42 05c0
00000060: a092 173f f145 8b3f 3d85 ac3f f834 a13f
00000070: a1af aabf aa1a d13f f75b e63f 467d 2bbf
00000080: e4a4 9cbf 70b6 0dbf c129 c3bf bf59 b6bf
00000090: 4765 80bf 6f65 fabf c2fe bf3f 96d7 1d40
000000a0: c967 ef3d e9e2 13be 1b1f 2bbe 66bb cf3c
000000b0: cbb5 59bc de7a 50bd 28e4 54be 249b acbd
000000c0: 4998 103e 708b 2ebe 35a9 9bbd c9a9 67bd
000000d0: e614 05be 468b be3d 4667 54be f67b 7abd
000000e0: 0e4a 133e 2ab6 18be cbe2 503d d7a3 443e
000000f0: 092a 0b3e b13f 123c 1357 26bd 0d1a c33c
00000100: 141c 59be b45e 873d 37aa 1c3e 8858 633e
00000110: 4bf6 0ebd 17d9 89bd 9f0a 08be 272a 9b3e
00000120: 8f8e 213e 6d8d 823e 3575 763e 3158 29be
00000130: 23a0 88be 850c e33c 7a82 86bb c3ec 5e3e
00000140: 887d a0be 5c3e dbbf 0afb bc3f a53c 2040
00000150: 9495 46be 286a f5bf 8f74 7fbf c8bb e03f
00000160: f1c9 953f 9d52 943f a644 9d3f e360 5bbf
00000170: 234c 3dbf 59b5 ebbf 45bc 91bf 0719 00be
00000180: dbec 843d 5eed 1ec0 5092 1340 55b1 e5bf
00000190: 40f6 8cbe c2e7 ea3f 06f5 6e3f 8fc9 c53f
000001a0: c94b da3f 3769 a53f 5e81 a63f 4079 d13f
000001b0: e362 9c3f 155c 1b3f c630 3c3f 276d ea3e
000001c0: 3e96 b2bf 2160 00be 14ec e63f 46dc 903f
000001d0: 1a04 51bf 5af6 aebf c258 1640 0a83 17c0
000001e0: 35fc 03be 507b 82bc 84db e6bd bb23 eabc
000001f0: 468f a83b 4bcb f6bd da7f 42be cba9 66be
00000200: 7e32 b43d 2877 acbc dde7 1bbe 4798 f73c
00000210: 2d47 36be 2b06 b03d 01ac 0abe f465 18bd
00000220: 9163 b6bc 657b e1bc 703f d33d b948 26be
00000230: 5278 a63f 9032 0440 b14f 393f dd66 02c0
00000240: 5c3f 1340 39bc 06c0 70c3 e83f 633b d2bf
00000250: 4f48 91bf 7152 46bf cb42 ff3f 2307 d13e
00000260: 9dc1 cc3e 0798 273e 708e e83f beed af3e
00000270: 36f0 fe3f 4fdb debf dc3c 3e40 d3b3 803f
00000280: 64c1 313f 6cc3 7c3e 3c08 f0bf db3e 473e
00000290: 1f54 b13e f8cd ab3e ef9b 103e 96c3 b13f
000002a0: 5e41 db3f aada d93e 407c 693e 1aa5 dd3e
000002b0: 80cb cd3f 8b0b 343e 0de3 333e 028f 30bf
000002c0: 2e09 3e3f a60f c83f 1b33 ccbe 237d f6bf
000002d0: c8a7 d73e 75f0 373e fdaf 1840 a0ce 483e
000002e0: f2dd 0140 465e 08bf b5bd dabf fcda 04c0
000002f0: f2fa ee3f 81a7 48be e69b 64bf b8ef a03f
00000300: be7a 493e c629 6cbf f9db 99be aa7f 68be
00000310: bba7 0ac0 98a9 34bf f88d 3340 8544 123f
00000320: 8e36 15be 00f5 4f3e 48a5 673e 1513 60bc
00000330: 5d98 333c 8f74 103e 40c2 bc3d c1c9 a63b
00000340: cb6c 4fbe f947 3fbe 33de 4a3c 2589 cf3d
00000350: 5ddc 0fbd 8b13 1c3e d1ce 503e e325 9b3a
00000360: 22c9 4c3e 585d fcbd 546e 1cbe 2ae1 463d
00000370: 5aa7 1140 3f75 e33f 3b13 c5bc 6dbe 1f40
00000380: d44e 8e3f d9a3 cb3f ff4d 4a3f 2b2a bc3f
00000390: f671 79bf 0070 d93e ddb1 093f 23e8 13c0
000003a0: dbd1 bfbf 16c8 6c3e 3ea2 0140 103c cdbf
000003b0: 9bc6 1040 d673 8bbe d3fb b03f d8ae 0540
000003c0: 27f0 e83f aa38 88bf fa8d 373e 76fc e7bf
000003d0: eafd ce3f 2f60 023e 7e7c 67bf 8967 3a3f
000003e0: a956 b4bf 1287 913e 4e5e 0140 e815 883e
000003f0: 8f6e 4dbf 13e8 09c0 807e 9c3f 6b9d aebf

bias f4 [9699]
0.8386134 -0.29532957 0.11381455 0.14064834 -0.9656183 -1.088756 0.20456402 0.042405803
2.266007 1.5695518 0.069975 0.3452862 -0.08402806 1.7030298 1.2195754 -0.3795548
1.8834938 0.06647103 -0.026993953 0.55733377 0.36917698 0.043870978 -0.026731273 -0.025302565
-0.17689383 -0.1434698 -0.038208134 -0.06670961 0.19188592 0.12748909 0.052114397 2.2831078
1.767866 0.18653882 -0.038075853 0.22771524 0.45880312 0.90802693 -0.07040356 -0.27906176
0.08436455 0.1598975 0.08826377 -0.01745749 0.1673967 -0.12123804 0.6754034 0.33661744
0.9477456 0.83422166 0.0054113804 0.13420291 0.022999004 0.17709574 0.009967442 0.49203452
-0.7244167 0.09720236 1.148992 0.1436697 0.5444838 0.032182813 -0.04781391 -0.060310718
0.1099528 0.23460013 0.20508425 1.3282092 -1.0160595 -0.10988874 -0.13467084 0.44271517
0.07606474 -0.1330788 0.21298082 0.24826504 0.057395607 2.0140932 -0.12487635 0.099753134
-0.066745944 0.026505021 -0.037296835 0.18221186 -0.14465839 0.07744927 0.05373703 1.8415064
0.16216026 -0.10387503 0.04198106 0.17524053 -0.19903192 -0.17506507 -0.117983945 0.13255776
-0.12983786 0.104182795 -0.042641863 0.29307684 0.5881475 0.057619553 0.23932831 0.18917501
0.14198524 0.0005111504 0.037186947 0.8702996 0.13685022 1.1632099 -0.12003244 0.47153747
-0.15036799 -0.039025303 0.09453338 0.1757977 0.7921888 -0.018239457 0.15321417 -0.3723885
0.060187675 -0.08571178 -0.10047746 0.21676661 0.19706449 -0.092988856 0.25500202 0.19706482
-0.7198045 0.035577442 0.12629 0.24319248 -0.020454044 0.1384549 0.14489703 0.9316391
1.0243654 -0.06490795 0.16864029 0.12503149 0.17789334 0.21402332 0.5608551 -0.14523514
-0.112314135 1.5489196 0.0083271265 0.07558583 -0.21005139 -0.111253515 -0.12966682 -0.19710891
-0.18179426 0.08265355 0.059060153 0.04739553 -0.0134635195 -0.09239196 -0.14839536 0.17280245
0.052969467 0.19329478 0.12550065 -0.14701954 0.19176324 0.5512513 -0.0053751078 0.1459827
0.2153143 0.8667382 0.01030199 0.12855168 -0.21426359 0.09221939 0.1287096 0.2619999
0.1998322 0.04832179 0.109897286 0.073237546 0.108319394 0.26657525 -0.16352998 0.06948762
-0.04625004 0.015819965 -0.0827146 -0.004327746 -0.11252031 0.05367206 -0.040842135 -0.12301077
0.21081553 0.15576255 -0.19393846 0.20221178 -0.022198422 -0.15035607 0.18115687 -0.082899764
-0.13595864 0.15187949 -0.11571319 0.06052102 0.09097521 0.19631283 6.9792172e-06 -0.08698256
0.19715828 0.02022999 -0.21288572 1.1680146 -0.012591167 0.2214453 -0.010689484 0.2459249
-0.046149295 0.19442458 -0.043000035 0.116108164 0.17405184 0.12408029 0.006281525 0.15964226
-0.13990667 0.12173562 -0.14316563 0.0656082 -0.14100602 0.11096906 0.48933318 0.12422992
0.24134812 -0.047899295 0.41534442 0.044745013 -0.13975285 0.04563866 -0.2219167 -0.06425108
0.046545602 0.03732043 -0.18466158 0.12926169 -0.1116255 -0.19316268 -0.14914955 0.2069789
-0.015728915 -0.10417572 -0.091764644 0.13307536 -0.044108972 -0.060559485 0.0136897275 -0.19902965
00000000: 5eaf 563f 7035 97be 9a17 e93d 1e06 103e
00000010: c332 77bf 5b5c 8bbf 3b79 513e b5b1 2d3d
00000020: 4206 1140 13e7 c83f 0e4f 8f3d 5ac9 b03e
00000030: e716 acbd e1fc d93f 0c1b 9c3f 0255 c2be
00000040: 5316 f13f f721 883d 6c22 ddbc 6dad 0e3f
00000050: c404 bd3e 0eb2 333d 8bfb dabc 5347 cfbc
00000060: a823 35be bfe9 12be 2280 1cbd 0c9f 88bd
00000070: be7d 443e 808c 023e e875 553d 701e 1240
00000080: 6f49 e23f 0804 3f3e 6df5 1bbd 2f2e 693e
00000090: 3ee8 ea3e 7474 683f be2f 90bd 2fe1 8ebe
000000a0: 52c7 ac3d 2cbc 233e a3c3 b43d 0303 8fbc
000000b0: 0a6a 2b3e a64b f8bd 3de7 2c3f 1f59 ac3e
000000c0: 759f 723f 8d8f 553f f351 b13b 7d6c 093e
000000d0: 6868 bc3c 9658 353e 7b4e 233c f3eb fb3e
000000e0: 5f73 39bf 0812 c73d 2b12 933f 261e 133e
000000f0: 4a63 0b3f 20d2 033d 85d8 43bd 5f08 77bd
00000100: ef2e e13d 043b 703e 9b01 523e c202 aa3f
00000110: 3d0e 82bf 590d e1bd 27e7 09be 90ab e23e
00000120: d5c7 9b3d cf45 08be a517 5a3e 3139 7e3e
00000130: a817 6b3d e7e6 0040 2cbf ffbd 5f4b cc3d
00000140: 19b2 88bd 0f21 d93c 91c4 18bd bf95 3a3e
00000150: 5421 14be b99d 9e3d 5c1b 5c3d 7bb6 eb3f
00000160: 570d 263e 6fbc d4bd 55f4 2b3d 4172 333e
00000170: 06cf 4bbe 4244 33be 91a1 f1bd 39bd 073e
00000180: 37f4 04be ca5d d53d 3ca9 2ebd 2b0e 963e
00000190: d690 163f 7b02 6c3d 7b12 753e 18b7 413e
000001a0: 9464 113e b9fe 053a 5751 183d f4cb 5e3f
000001b0: 7722 0c3e 10e4 943f 91d3 f5bd 5c6d f13e
000001c0: 11fa 19be ffd8 1fbd b79a c13d 5004 343e
000001d0: e3cc 4a3f ea6a 95bc 2de4 1c3e b5a9 bebe
000001e0: 5a87 763d a889 afbd 20c7 cdbd 11f8 5d3e
000001f0: 46cb 493e f170 bebd a08f 823e 5ccb 493e
00000200: 1c45 38bf a7b9 113d 2a52 013e 7307 793e
00000210: 3d8f a7bc 1fc7 0d3e e35f 143e e67f 6e3f
00000220: 681e 833f 76ee 84bd 0ab0 2c3e 4108 003e
00000230: ac29 363e ee28 5b3e 3394 0f3f 85b8 14be
00000240: f404 e6bd ff42 c63f 806e 083c becc 9a3d
00000250: b617 57be e2d8 e3bd 61c7 04be ebd6 49be
00000260: 4628 3abe 4446 a93d 0fe9 713d d121 423d
00000270: 1896 5cbc ff37 bdbd f4f4 17be 20f3 303e
00000280: 83f6 583d 11ef 453e 3e83 003e 4a8c 16be
00000290: 955d 443e ce1e 0d3f ac21 b0bb 7d7c 153e
000002a0: 5a7b 5c3e 8ee2 5d3f aec9 283c 0da3 033e
000002b0: ea67 5bbe 85dd bc3d 73cc 033e da24 863e
000002c0: d0a0 4c3e 12ed 453d d411 e13d 91fd 953d
000002d0: 8fd6 dd3d 8d7c 883e 6774 27be 864f 8e3d
000002e0: af70 3dbd df98 813c 4666 a9bd c4cf 8dbb
000002f0: 0c71 e6bd 3cd7 5b3d 154a 27bd 12ed fbbd
00000300: 07e0 573e 3880 1f3e ce97 46be 9b10 4f3e
00000310: 77d9 b5bc f1f6 19be 3081 393e 5ac7 a9bd
00000320: be38 0bbe 4c86 1b3e 09fb ecbd e4e4 773d
00000330: 3651 ba3d 3b06 493e 052f ea36 ea23 b2bd
00000340: dce3 493e 5db9 a53c b7fe 59be 8181 953f
00000350: 2f4b 4ebc 8fc2 623e f222 2fbc bdd3 7b3e
00000360: 0b07 3dbd 3d17 473e ce20 30bd 1eca ed3d
00000370: a53a 323e cf1d fe3d 40d5 cd3b 4379 233e
00000380: b243 0fbe 8650 f93d 039a 12be 985d 863d
00000390: e263 10be bf43 e33d e189 fa3e 426c fe3d
000003a0: f623 773e 0d32 44bd 06a8 d43e 8c46 373d
000003b0: 5f1b 0fbe 9bef 3a3d 223e 63be 1296 83bd
000003c0: 9aa6 3e3d 4fdd 183d ed17 3dbe 2d5d 043e
000003d0: e99b e4bd 70cc 45be a9ba 18be 47f2 533e
000003e0: edd9 80bc 145a d5bd 1aef bbbd e844 083e
000003f0: 9cab 34bd 390d 78bd e14a 603c 6ece 4bbe
