TrainedModels/NN_0.731.pt (torch, 230007 bytes, 7 tensors)

weight f4 [128, 54]
-0.090351 0.12866482 -0.095928505 0.022070767 -0.09479263 0.03158398 0.024584891 -0.07262787
-0.096737854 0.012755549 0.054100294 0.016947575 -0.0123232 0.009760368 0.13991831 0.13964798
0.058093708 0.076247334 0.07927976 0.113343544 0.11509993 -0.050128385 0.0827116 -0.12816842
-0.13844958 0.12142819 0.024388094 -0.09010302 0.1527837 0.116479844 -0.10874279 -0.06627228
0.018552879 -0.027947646 0.08893217 -0.09001244 -0.14714418 0.084360234 0.056495238 -0.07069216
-0.0073678466 -0.042939395 -0.07849171 -0.00047196465 -0.12078912 -0.09341173 -0.09764083 0.11291266
-0.073902845 -0.07370413 -0.14080606 -0.024436777 0.045134936 0.012020778 0.09181458 0.09979979
-0.03970807 0.09229036 -0.070255 -0.08996331 0.04074965 -0.0830309 0.13097909 -0.040569562
0.01752792 -0.06769132 0.11996181 0.023939315 0.0039788974 0.10506884 -0.13247272 -0.14482088
-0.037184857 -0.024749326 -0.109594 -0.0396434 0.004829137 0.057786968 -0.10074693 -0.003784585
0.041700598 -0.14799033 -0.08466577 -0.079286955 -0.13141237 0.010296807 -0.02113892 -0.025070263
0.104799934 0.12546141 -0.01581006 0.030495329 -0.10124822 -0.093064554 0.11760566 0.08356291
0.07426812 0.09193088 -0.10307214 0.0959734 0.041343804 0.11847451 -0.10365876 -0.068019
-0.12801218 0.013369841 -0.08229942 0.080515295 0.06533584 0.08591345 -0.11935939 -0.06714908
0.023009835 -0.055763282 0.02419346 0.031692874 -0.035728782 0.07559962 -0.06625633 0.048744686
0.037337445 -0.07371653 0.07011069 -0.028187802 -0.10558312 0.14354187 0.016461585 -0.106652
0.030021926 0.022980671 0.13199848 0.025437888 -0.0030425459 0.054690607 -0.12972395 0.037662625
0.04269889 0.042293888 -0.078159675 0.07707194 -0.025314143 0.026943607 -0.13937682 -0.029483324
-0.09145347 0.100003846 -0.03170066 0.10423469 0.09766974 -0.13990198 0.045255106 0.09287125
0.14030527 0.07255996 0.06366849 0.04119909 -0.04062965 -0.07835801 -0.0661651 0.021237599
0.13429648 0.111042425 0.10353635 0.023272771 0.064190894 -0.021985473 0.054773033 -0.012637414
0.09209216 -0.021083402 -0.14231628 0.02858105 -0.026084974 0.13102478 0.034439284 -0.10698702
-0.010682768 0.09522271 -0.0069230516 0.08923848 -0.023651535 0.054781854 -0.12890589 -0.027270136
-0.07002944 0.14460427 -0.07422568 -0.004994801 -0.10616876 0.075847 -0.0013293506 -0.060095552
-0.11535136 -0.04517322 0.025135612 0.08602395 -0.14424948 0.12383501 0.038381096 0.1435685
-0.0928839 -0.009267468 0.059244886 0.124992535 -0.013566651 -0.12989114 0.051641934 -0.10967416
0.09912387 -0.056092408 0.010356951 -0.013412928 0.112891145 0.0696261 0.027459467 -0.010897325
0.04597304 0.07558358 0.12920482 -0.012877929 0.030278262 -0.07707407 0.04322326 -0.006805103
0.05038824 -0.081869625 -0.015793156 0.015023377 -0.053170834 0.07930308 -0.030567875 -0.07048388
-0.0045352345 0.09992177 -0.016158111 0.06714657 0.027577395 -0.08954891 0.033710256 -0.0851234
-0.030432243 0.053892672 0.10416921 -0.05535893 -0.110180646 0.08145159 0.103442475 -0.043959633
-0.08219851 0.025859619 -0.08683158 -0.023263033 0.07978392 -0.09342333 0.068581685 0.087516375
00000000: f209 b9bd b6c0 033e 2a76 c4bd c1cd b43c
00000010: a322 c2bd 345e 013d 4166 c93c ecbd 94bd
00000020: 7f1e c6bd a6fc 503c 4598 5d3d a4d5 8a3c
00000030: 3fe7 49bc f3e9 1f3c bf46 0f3e e1ff 0e3e
00000040: abf3 6d3d 9027 9c3d 6d5d a23d a920 e83d
00000050: 83b9 eb3d 6c53 4dbd b364 a93d 953e 03be
00000060: bac5 0dbe 58af f83d 8ac9 c73c ef87 b8bd
00000070: 5573 1c3e fc8c ee3d 8ab4 debd c3b9 87bd
00000080: 35fc 973c 76f2 e4bc 1222 b63d 7158 b8bd
00000090: f7ac 16be 0fc5 ac3d 8d67 673d 0dc7 90bd
000000a0: fa6d f1bb 38e1 2fbd 43c0 a0bd 0672 f7b9
000000b0: 4960 f7bd a64e bfbd eaf7 c7bd c13e e73d
000000c0: 605a 97bd 31f2 96bd 772f 10be a32f c8bc
000000d0: 69df 383d ccf2 443c 4809 bc3d d563 cc3d
000000e0: eea4 22bd ba02 bd3d dae1 8fbd af3e b8bd
000000f0: 1be9 263d 1b0c aabd 621f 063e 452c 26bd
00000100: b696 8f3c bfa1 8abd 8aae f53d 621c c43c
00000110: 6961 823b 552e d73d eea6 07be ed4b 14be
00000120: 264f 18bd 19bf cabc d272 e0bd 1e61 22bd
00000130: bd3d 9e3b 07b2 6c3d 6854 cebd cd06 78bb
00000140: 3fce 2a3d c78a 17be 3f65 adbd 3361 a2bd
00000150: f790 06be f0b3 283c 872b adbc 2760 cdbc
00000160: 59a1 d63d f578 003e 1984 81bc 57d1 f93c
00000170: 3a5b cfbd a198 bebd 3cdb f03d 0823 ab3d
00000180: e219 983d 4246 bc3d 7c17 d3bd b48d c43d
00000190: 1f58 293d c4a2 f23d 0b4b d4bd 8c4d 8bbd
000001a0: a015 03be 2d0d 5b3c 998c a8bd 34e5 a43d
000001b0: ccce 853d 64f3 af3d b272 f4bd 7585 89bd
000001c0: 1f7f bc3c 0a68 64bd 5d31 c63c 63d0 013d
000001d0: 5858 12bd f9d3 9a3d 66b1 87bd 82a8 473d
000001e0: 26ef 183d b1f8 96bd 3296 8f3d 1bea e6bc
000001f0: f63b d8bd a4fc 123e 72da 863c 5d6c dabd
00000200: 8bf0 f53c f641 bc3c 9c2a 073e 1e63 d03c
00000210: 7365 47bb 4203 603d 5bd6 04be 2044 1a3d
00000220: 08e5 2e3d 5b3c 2d3d 2e12 a0bd e5d7 9d3d
00000230: 9b5f cfbc d7b8 dc3c ccb8 0ebe 0387 f1bc
00000240: f54b bbbd d1ce cc3d 8dd8 01bd ff78 d53d
00000250: 1307 c83d 7742 0fbe 6b5d 393d 4833 be3d
00000260: 2fac 0f3e 519a 943d a064 823d 61c0 283d
00000270: 476b 26bd 2a7a a0bd 9181 87bd 79fa ad3c
00000280: 0485 093e 366a e33d de0a d43d 8aa6 be3c
00000290: 8476 833d e11a b4bc b059 603d 280d 4fbc
000002a0: d09a bc3d 19b7 acbc 5cbb 11be ce22 ea3c
000002b0: 28b0 d5bc 5c2b 063e 3510 0d3d 031c dbbd
000002c0: c706 2fbc 2004 c33d c4da e2bb aac2 b63d
000002d0: ddc0 c1bc f062 603d e8ff 03be 9f65 dfbc
000002e0: 986b 8fbd 2413 143e a203 98bd 6dab a3bb
000002f0: 026f d9bd ac55 9b3d 9b3d aeba c126 76bd
00000300: 553d ecbd 8e07 39bd 33e9 cd3c 532d b03d
00000310: 23b6 13be 369d fd3d 7f35 1d3d 9f03 133e
00000320: ea39 bebd 94d6 17bc c4aa 723d 16fc ff3d
00000330: a946 5ebc 2f02 05be 7e86 533d d99c e0bd
00000340: 7501 cb3d 27c1 65bd 33b0 293c e6c1 5bbc
00000350: 7933 e73d 2198 8e3d adf2 e03c b28a 32bc
00000360: 3a4e 3c3d 90cb 9a3d 454e 043e f3fd 52bc
00000370: 1e0a f83c 03d9 9dbd e00a 313d 57fd debb
00000380: e663 4e3d 43ab a7bd a660 81bc 9c24 763c
00000390: a9c9 59bd a769 a23d 7b69 fabc da59 90bd
000003a0: 4e9c 94bb c9a3 cc3d 045e 84bc 2484 893d
000003b0: fde9 e13c 6b65 b7bd c413 0a3d 2d55 aebd
000003c0: 0a4d f9bc 90be 5c3d ab56 d53d 0cc0 62bd
000003d0: 64a6 e1bd 17d0 a63d a6d9 d33d 040f 34bd
000003e0: b157 a8bd 8dd7 d33c c1d4 b1bd 1e92 bebc
000003f0: c065 a33d bb54 bfbd 8e74 8c3d c93b b33d

bias f4 [128]
0.11083577 -0.0708225 -0.06325296 0.0399944 -0.113605164 0.12527335 -0.07963223 0.09187892
0.12330253 0.063881114 0.07181691 -0.049036536 -0.09625139 -0.0033080247 0.009508653 0.12546077
0.04824085 -0.03998958 0.08029219 -0.07327463 0.0048407004 -0.0989448 -0.026651872 0.068972394
0.13149042 -0.123019986 0.11404547 -0.08817902 -0.014748986 0.044628277 0.060475614 -0.0065347906
0.091296956 0.08167333 -0.052207924 -0.13411973 0.05277001 0.032769907 0.14624839 0.07951126
0.11412422 0.040992673 -0.009540176 0.0022227208 0.093553334 -0.025633436 -0.04818209 0.006360647
0.081898965 -0.05801078 -0.058620382 -0.11843062 -0.06408599 -0.0987701 -0.029938616 -0.09726569
-0.07860778 -0.040751748 0.0854781 0.09777053 -0.07514717 -0.021122884 -0.062193528 -0.12035171
0.13035624 0.111562684 0.1399179 0.040954202 0.108825766 -0.11246037 -0.079028025 0.12507446
-0.079705514 0.06697649 0.046154115 0.03486583 -0.09861894 0.00605028 0.02284955 -0.028191464
0.10718565 -0.035676513 -0.09628249 0.014649898 -0.049992844 0.03738237 -0.0140016 -0.040679246
-0.030076236 0.069545165 -0.051208813 0.03573775 -0.03057207 -0.10440797 -0.033720005 0.062798776
-0.043932393 -0.09685061 -0.059518784 0.032184526 -0.020810347 0.050352868 -0.09390862 0.014606678
0.120911166 -0.12159889 0.081594594 -0.025155358 -0.058448188 -0.11088472 -0.03018955 -0.084522724
-0.113717794 0.14728251 0.13029638 0.05397277 -0.07921788 0.07483299 0.08103608 0.1260945
0.02923633 -0.03312048 -0.02700914 -0.030738628 0.033542812 0.014114525 0.014801778 -0.07354448
00000000: ddfd e23d 630b 91bd c58a 81bd 2bd1 233d
00000010: d3a9 e8bd a847 003e 3916 a3bd 042b bc3d
00000020: 0986 fc3d 1ad4 823d be14 933d 89da 48bd
00000030: 731f c5bd 72cb 58bb 2eca 1b3c ca78 003e
00000040: 3398 453d 1dcc 23bd 3b70 a43d 0211 96bd
00000050: bd9e 9e3b 92a3 cabd 0755 dabc 6641 8d3d
00000060: 6da5 063e e7f1 fbbd ac90 e93d 3497 b4bd
00000070: bba5 71bc 24cc 363d 47b5 773d cc21 d6bb
00000080: e6f9 ba3d 5944 a73d fad7 55bd af56 09be
00000090: 5e25 583d bd39 063d 23c2 153e cdd6 a23d
000000a0: f6b9 e93d efe7 273d 664e 1cbc 11ab 113b
000000b0: e498 bf3d 36fd d1bc 955a 45bd f96c d03b
000000c0: a5ba a73d b69c 6dbd ed1b 70bd c18b f2bd
000000d0: 843f 83bd fa47 cabd d441 f5bc 3c33 c7bd
000000e0: 1efd a0bd 4eeb 26bd 240f af3d ea3b c83d
000000f0: c2e6 99bd e609 adbc a4be 7ebd f57a f6bd
00000100: 1b7c 053e fa7a e43d a346 0f3e 98bf 273d
00000110: 0be0 de3d 9f51 e6bd 72d9 a1bd 8513 003e
00000120: a53c a3bd f82a 893d 190c 3d3d 79cf 0e3d
00000130: baf8 c9bd 6d41 c63b fb2e bb3c c9f1 e6bc
00000140: 2684 db3d 8921 12bd c12f c5bd 2006 703c
00000150: 4cc5 4cbd 421e 193d f866 65bc 489f 26bd
00000160: 7062 f6bc b26d 8e3d 55c0 51bd bf61 123d
00000170: 4772 fabc d9d3 d5bd fd1d 0abd a59c 803d
00000180: 74f2 33bd 9d59 c6bd f8c9 73bd ecd3 033d
00000190: 767a aabc cf3e 4e3d 2a53 c0bd d950 6f3c
000001a0: 46a0 f73d d708 f9bd 111b a73d 9c12 cebc
000001b0: 5e67 6fbd 8717 e3bd 1350 f7bc 401a adbd
000001c0: e0e4 e8bd 3ad1 163e 6a6c 053e 8d12 5d3d
000001d0: fc3c a2bd 0a42 993d 3ff6 a53d eb1e 013e
000001e0: 0781 ef3c 57a9 07bd 4642 ddbc 93cf fbbc
000001f0: 3064 093d 9c40 673c 2883 723c 7d9e 96bd

weight f4 [256, 128]
0.015247217 -0.033270773 0.00862335 -0.025914486 -0.07023684 0.038029633 -0.055467974 0.052035365
0.0017074168 -0.013861549 0.059184253 -0.034728486 -0.020719565 -0.07180749 0.017720904 -0.07105197
-0.07652133 -0.027184393 0.02574324 0.07624049 0.075426206 0.062166695 0.10233919 0.008203937
0.023315907 0.031973124 -0.08873949 0.07473486 -0.02290562 -0.030886099 -0.022034489 0.022336528
0.08068106 -0.093533844 -0.009906424 -0.030179065 0.016356453 -0.010035893 -0.021379536 -0.025367888
0.03982631 -0.08352106 -0.0662079 0.07062173 -0.07975123 0.08401984 -0.065394424 0.07830805
0.078788444 0.01532959 0.013398655 -0.08203519 -0.03794854 0.00989318 0.07759742 0.050010744
-0.09628301 -0.020024862 -0.08929883 -0.05124252 0.062677585 -0.03685376 8.6002954e-05 -0.058777977
0.007835785 0.028958557 0.0147285145 -0.03496114 0.032338966 -0.05561682 -0.03285611 -0.008455128
-0.015365614 -0.0009031464 0.003854405 -0.04517717 -0.08883692 -0.0035477537 -0.06611172 0.07940932
-0.07856208 -0.0936432 -0.058069967 0.03335605 -0.043525692 -0.03882503 -0.05267663 -0.06492083
0.0042796438 0.02661002 -0.043066185 -0.011472039 0.0147291785 0.031948566 -0.0028288288 -0.018652936
0.043908257 -0.08938085 0.087153465 0.07465068 0.080404684 0.07044653 0.02476965 -0.055774078
-0.051796857 -0.07655975 0.081244074 -0.0516577 0.04998111 0.06616087 0.05185821 0.0059960913
0.0878706 0.058811218 0.015266087 0.057489444 0.06150788 0.035586376 -0.05490137 -0.018513087
-0.0730153 0.025412546 -0.024167197 0.091530286 0.05700869 0.0745767 0.07535338 0.070254296
0.020199347 -0.07931312 0.04679649 -0.018660093 0.03481486 0.064248525 -0.062448476 0.049074806
-0.022430748 -0.00954312 -0.041826047 -0.020677058 -0.048097927 -0.005146923 0.0760541 -0.048116617
0.09035227 0.058886837 0.06995469 0.018264798 -0.087579235 0.03215321 -0.06817969 0.011174224
0.029389996 0.047962464 -0.09088001 0.03260165 -0.020255549 0.026655484 0.036347136 0.019370833
0.064591855 0.015375945 -0.08080411 0.03373086 0.00056490704 -0.010869622 0.101586275 0.046192948
-0.013034684 0.05170827 0.0027846645 -0.016154343 -0.060609464 -0.072095975 0.08104463 0.090818726
-0.055593442 -0.06580896 -0.057689104 0.016699806 -0.069461 -0.06241562 0.037110586 -0.024841696
-0.05662353 -0.052986626 -0.0006839741 -0.034605008 0.10547804 0.052472983 0.056353673 -0.016962
0.025854236 0.07914608 0.011626515 0.07645721 0.009096092 -0.023330914 0.062473956 -0.008907155
-0.026269887 0.013868577 -0.054135423 0.047732204 0.0751661 -0.035188865 0.00217711 -0.03786961
0.09102215 -0.078849666 -0.04158428 -0.02637761 0.07495376 -0.07770135 -0.034595277 -0.021796009
-0.017085537 -0.045664985 0.052957058 -0.050101306 0.05230501 -0.054984607 0.025739897 -0.06703079
0.0680684 -0.07929359 0.059139945 0.07904405 -0.0643675 0.022495277 -0.048114635 0.04709016
-0.060569227 -0.07322797 -0.07608748 0.024162728 -0.06655205 -0.007129111 0.06418845 0.043175187
-0.061457574 0.03800402 0.040764716 0.040289935 -0.014537571 0.06535397 -0.019739736 0.04845376
0.050540585 -7.081509e-05 -0.038284443 -0.06739375 -0.028513046 0.036031023 0.06008995 -0.027375061
00000000: 77cf 793c ef46 08bd f448 0d3c 9e4a d4bc
00000010: 55d8 8fbd f6c4 1b3d 6332 63bd 0923 553d
00000020: 67cb df3a 8d1b 63bc 306b 723d 753f 0ebd
00000030: 14bc a9bc ce0f 93bd 6e2b 913c b283 91bd
00000040: 37b7 9cbd ceb1 debc 7de3 d23c f923 9c3d
00000050: 0e79 9a3d 81a2 7e3d 3697 d13d ce69 063c
00000060: 0001 bf3c 40f6 023d 0dbd b5bd 970e 993d
00000070: 91a4 bbbc d804 fdbc ac81 b4bc 18fb b63c
00000080: 1d3c a53d ac8e bfbd 8e4e 22bc 163a f7bc
00000090: f8fd 853c 966d 24bc 2324 afbc 51d0 cfbc
000000a0: ea20 233d 170d abbd 0298 87bd 20a2 903d
000000b0: 9d54 a3bd 9812 ac3d 83ed 85bd f95f a03d
000000c0: d65b a13d f628 7b3c 0886 5b3c 1102 a8bd
000000d0: ee6f 1bbd 0117 223c 65eb 9e3d 11d8 4c3d
000000e0: 0730 c5bd 2e0b a4bc 4ee2 b6bd ade3 51bd
000000f0: 1b5d 803d f8f3 16bd 7c5c b438 2dc1 70bd
00000100: aa61 003c 7f3a ed3c de4f 713c 6a33 0fbd
00000110: dd75 043d 76ce 63bd 2194 06bd 6187 0abc
00000120: 0ec0 7bbc 21c1 6cba 2f9a 7c3b b20b 39bd
00000130: 22f0 b5bd 6e81 68bb 9565 87bd 5ba1 a23d
00000140: 28e5 a0bd 02c8 bfbd c6da 6dbd 5aa0 083d
00000150: ff47 32bd ff06 1fbd 73c3 57bd 36f5 84bd
00000160: 413c 8c3b 42fd d93c 2b66 30bd 38f5 3bbc
00000170: a752 713c 80dc 023d df63 39bb 0bce 98bc
00000180: 25d9 333d 4f0d b7bd 847d b23d 75e2 983d
00000190: 36ab a43d 4546 903d b9e9 ca3c 5c73 64bd
000001a0: f128 54bd 5ccb 9cbd 4b63 a63d 0697 53bd
000001b0: feb8 4c3d 5a7f 873d 4669 543d dc7a c43b
000001c0: 80f5 b33d 08e4 703d 9c1e 7a3c 0d7a 6b3d
000001d0: b0ef 7b3d 05c3 113d 42e0 60bd c2a8 97bc
000001e0: 0c89 95bd f92d d03c 49fa c5bc 3b74 bb3d
000001f0: f281 693d abbb 983d df52 9a3d 7ce1 8f3d
00000200: 1a79 a53c eb6e a2bd adad 3f3d 0ddd 98bc
00000210: 079a 0e3d bb94 833d f9c9 7fbd aa02 493d
00000220: b0c0 b7bc bf5a 1cbc ca51 2bbd ef62 a9bc
00000230: 5502 45bd 85a7 a8bb 41c2 9b3d ee15 45bd
00000240: 9c0a b93d 5333 713d 6844 8f3d 0fa0 953c
00000250: be5c b3bd 16b3 033d cba1 8bbd 1814 373c
00000260: 4ac3 f03c 4a74 443d 4c1f babd 4f89 053d
00000270: f7ee a5bc 9a5c da3c bce0 143d 95af 9e3c
00000280: bc48 843d 63eb 7b3c a07c a5bd 5f29 0a3d
00000290: 4516 143a 8016 32bc 770c d03d d134 3d3d
000002a0: 6d8f 55bc 0dcc 533d eb7e 363b 1d56 84bc
000002b0: a141 78bd 0ea7 93bd bafa a53d 2bff b93d
000002c0: f3b5 63bd d9c6 86bd 694b 6cbd 08ce 883c
000002d0: 9241 8ebd 85a7 7fbd 4501 183d d080 cbbc
000002e0: 13ee 67bd 8108 59bd ba4c 33ba fbbd 0dbd
000002f0: df04 d83d e9ed 563d 1cd3 663d e4f3 8abc
00000300: 43cc d33c 5717 a23d 237d 3e3c 9995 9c3d
00000310: c607 153c 7920 bfbc b1e4 7f3d 51ef 11bc
00000320: f233 d7bc 0739 633c 1bbd 5dbd d882 433d
00000330: aff0 993d 3322 10bd d8ad 0e3b 2a1d 1bbd
00000340: d269 ba3d ef7b a1bd 4754 2abd dc15 d8bc
00000350: 5b81 993d e321 9fbd c7b3 0dbd 8b8d b2bc
00000360: f8f6 8bbc 350b 3bbd 80e9 583d 0737 4dbd
00000370: c73d 563d 8a37 61bd 7adc d23c 7047 89bd
00000380: 7267 8b3d ad64 a2bd ba3c 723d d9e1 a13d
00000390: 1cd3 83bd 0448 b83c da13 45bd 9de1 403d
000003a0: 7017 78bd 8cf8 95bd c1d3 9bbd eaf0 c53c
000003b0: 714c 88bd 519b e9bb 3c75 833d 77d8 303d
000003c0: f0ba 7bbd 1aaa 1b3d e7f8 263d 0f07 253d
000003d0: fe2e 6ebc 4dd8 853d 3ab5 a1bc 7377 463d
000003e0: a503 4f3d 9082 94b8 26d0 1cbd bc05 8abd
000003f0: 3194 e9bc 4495 133d e120 763d aa41 e0bc

bias f4 [256]
-0.033625312 0.08222932 -0.04834914 0.050922815 0.019861255 0.02237708 0.06877355 0.09175393
-0.05801275 -0.03346449 0.07745001 0.054402445 0.02443775 -0.003772865 -0.04068715 0.03883781
-0.0040711914 0.068453506 0.019464523 -0.03620467 0.016698522 -0.046758965 0.024 -0.07664414
0.049062565 0.0343103 0.052770883 -0.087184906 -0.07061487 0.070402764 0.045586467 -0.06660825
-0.07606844 -0.0074157463 0.008565716 -0.05098964 0.059762377 0.04703188 -0.028872604 -0.053795744
-0.04972696 -0.07705279 0.053954173 -0.005294786 -0.03981718 0.015997969 0.055457536 -0.011885687
-0.030533979 -0.0063418155 -0.0684428 -0.06810216 0.06270181 -0.04932925 -0.025846822 -0.07246707
-0.023318456 0.06941553 0.05546698 -0.06483759 -0.010066881 -0.020270124 -0.045715045 0.013936603
-0.03387616 -0.041100487 0.047457952 -0.08679663 -0.055011656 0.029997092 0.03102262 0.044029657
-0.095568955 0.061235823 -0.057109307 0.08112099 0.059877135 -0.07705914 -0.07028889 -0.028590377
0.05430697 -0.01536257 -0.015244136 -0.04071948 -0.034911454 0.0074503864 0.057500612 -0.048904877
0.036947027 0.023968339 0.02537109 0.018818665 -0.06775202 -0.0958209 -0.010989993 0.06978806
-0.0005665639 -0.052509576 0.0053902934 -0.05703575 -0.08993528 0.0050237877 -0.01608063 0.0040134536
-0.02029329 -0.037968494 -0.040910937 0.064185135 -0.027912794 0.05204831 0.032667022 -0.03202632
0.044674397 0.07214911 0.065043256 0.010199908 -0.073837884 -0.026015792 0.006944405 -0.031393364
0.06255818 -0.0747594 0.03742163 0.02232375 0.06741129 0.0063675307 0.001785541 0.041824404
-0.047152705 0.097808555 -0.009016034 -0.05918879 0.02865643 -0.028364172 0.037333686 0.051368784
-0.07268431 0.06686643 0.06719078 0.0017345207 -0.028101552 -0.07938686 -0.057246894 -0.07925539
0.021060748 -0.09289944 -0.009358946 0.059467208 -0.029793676 0.03064897 0.0047589233 0.06625258
0.059971783 0.06770147 -0.06173353 0.021582361 0.06859234 0.0257891 0.06286578 0.0013050352
-0.048245996 0.07548229 0.05373968 -0.06269177 0.05870916 0.06418162 0.051254943 0.0074658715
-0.09106595 -0.06941712 0.04090915 0.09529807 0.053286094 -0.08751671 0.06419076 0.07492374
-0.06865016 0.041603256 0.013009884 -0.07372262 0.01042918 0.08761535 0.0057757646 -0.009719859
0.07929469 -0.026627095 -0.053648878 0.037680168 -0.070481025 0.056734595 0.060309004 0.024262935
-0.065888144 -0.09564366 -0.033092722 0.068012625 -0.050973777 -0.06221846 0.092504255 -0.0008714397
-0.0031429043 -0.057347104 -0.06857254 -0.022693409 0.0064014317 -0.07935487 0.03732634 -0.017610453
0.005718947 0.021909894 -0.0066552702 -0.033724535 -0.0102499025 -0.0038967947 -0.06914414 -0.0043095537
-0.059443563 -0.04531905 0.07027338 -0.08849034 -0.057424966 0.057786748 0.025030976 -0.024147492
0.016964262 -0.08445962 0.008508184 -0.04370037 -0.01469377 -0.015900234 -0.096672185 -0.074232265
0.012800856 -0.056169793 -0.016199565 0.017477293 0.04687581 -0.01619835 -0.061478928 0.07736161
0.008595619 -0.08151696 0.0025432743 -0.052613404 -0.08823901 -0.075588316 0.08810577 0.05562015
0.06870697 -0.028097378 -0.096116394 0.074376956 0.024848444 0.07342893 5.6907695e-05 0.010920223
00000000: b2ba 09bd d967 a83d bf09 46bd 7194 503d
00000010: 12b4 a23c 2350 b73c 26d9 8c3d 7ce9 bb3d
00000020: c79e 6dbd 1012 09bd 1c9e 9e3d 19d5 5e3d
00000030: ad31 c83c 2c42 77bb 92a7 26bd 6514 1f3d
00000040: a167 85bb 5a31 8c3d 1074 9f3c 594b 14bd
00000050: 57cb 883c 5486 3fbd a69b c43c 9af7 9cbd
00000060: d4f5 483d f588 0c3d 4826 583d 008e b2bd
00000070: 879e 90bd 532f 903d e0b8 3a3d e869 88bd
00000080: c5c9 9bbd caff f2bb 3857 0c3c 83da 50bd
00000090: 65c9 743d 80a4 403d 3d86 ecbc ed58 5cbd
000000a0: 7fae 4bbd dacd 9dbd 0dff 5c3d e27f adbb
000000b0: 5717 23bd 2c0e 833c 7127 633d 2fbc 42bc
000000c0: 6522 fabc 01cf cfbb bd2b 8cbd 2579 8bbd
000000d0: ce69 803d 780d 4abd b7bc d3bc 9d69 94bd
000000e0: 5906 bfbc bb29 8e3d 5831 633d 92c9 84bd
000000f0: 8fef 24bc 880d a6bc b33f 3bbd 5a56 643c
00000100: bac1 0abd fc58 28bd 4563 423d 6ec2 b1bd
00000110: e753 61bd 76bc f53c 2623 fe3c 7158 343d
00000120: a8b9 c3bd 6ad2 7a3d 73eb 69bd c322 a63d
00000130: ba41 753d 2fd1 9dbd 9ff3 8fbd 5e36 eabc
00000140: fc70 5e3d 4ab3 7bbc 8ac2 79bc 78c9 26bd
00000150: 50ff 0ebd 5f22 f43b c385 6b3d 7b50 48bd
00000160: c455 173d 4059 c43c 08d7 cf3c 9a29 9a3c
00000170: 92c1 8abd bf3d c4bd 5f0f 34bc 0bed 8e3d
00000180: 7685 14ba 4814 57bd 0fa1 b03b 529e 69bd
00000190: fd2f b8bd 969e a43b 86bb 83bc 4a83 833b
000001a0: 1d3e a6bc da84 1bbd 3a92 27bd 7f73 833d
000001b0: 5fa9 e4bc 9c30 553d dbcd 053d 082e 03bd
000001c0: 80fc 363d eac2 933d 6635 853d 841d 273c
000001d0: 5138 97bd 121f d5bc e48d e33b 5496 00bd
000001e0: 811e 803d 751b 99bd 6c47 193d 4ce0 b63c
000001f0: ee0e 8a3d b8a6 d03b d008 ea3a 1150 2b3d
00000200: 3223 41bd da4f c83d fdb7 13bc f26f 72bd
00000210: e4c0 ea3c fb5b e8bc 35eb 183d 1368 523d
00000220: 83db 94bd 44f1 883d 529b 893d db58 e33a
00000230: 3a35 e6bc 9495 a2bd b87b 6abd a650 a2bd
00000240: 9787 ac3c 1042 bebd 4456 19bc e393 733d
00000250: de11 f4bc 8c13 fb3c bef0 9b3b 6faf 873d
00000260: f9a4 753d 11a7 8a3d 4cdc 7cbd 7ecd b03c
00000270: 247a 8c3d aa43 d33c c6bf 803d b70d ab3a
00000280: 989d 45bd 7596 9a3d 241e 5c3d 8b64 80bd
00000290: 0479 703d a771 833d b4f0 513d 45a4 f43b
000002a0: c980 babd 902a 8ebd 5a90 273d a22b c33d
000002b0: 8542 5a3d f63b b3bd 7276 833d 9e71 993d
000002c0: 7598 8cbd 2d68 2a3d 6927 553c e3fb 96bd
000002d0: 27df 2a3c ad6f b33d a042 bd3b 0b40 1fbc
000002e0: 4165 a23d 1121 dabc edbe 5bbd 8556 1a3d
000002f0: 5b58 90bd 8962 683d 9306 773d 10c3 c63c
00000300: 5df0 86bd d3e0 c3bd 3c8c 07bd 344a 8b3d
00000310: e1c9 50bd c9d8 7ebd df72 bd3d 5471 64ba
00000320: 2ff9 4dbb cce4 6abd c36f 8cbd 87e7 b9bc
00000330: 1ac3 d13b ce84 a2bd 81e3 183d cc43 90bc
00000340: 0166 bb3b 617c b33c 7414 dabb bd22 0abd
00000350: 35ef 27bc 5e61 7fbb 719b 8dbd 2837 8dbb
00000360: 187b 73bd 78a0 39bd 7deb 8f3d 6c3a b5bd
00000370: 7136 6bbd ccb1 6c3d c30d cd3c f6d0 c5bc
00000380: a3f8 8a3c 2af9 acbd e965 0b3c 29ff 32bd
00000390: 23be 70bc 3541 82bc 11fc c5bd 1607 98bd
000003a0: aeba 513c 4c12 66bd f3b4 84bc 8a2c 8f3c
000003b0: d900 403d 67b2 84bc 54d1 7bbd c46f 9e3d
000003c0: a4d4 0c3c 5df2 a6bd 10ad 263b 2781 57bd
000003d0: a7b6 b4bd 0cce 9abd cc70 b43d f4d1 633d
000003e0: 3db6 8c3d 792c e6bc acd8 c4bd f252 983d
000003f0: f78e cb3c e861 963d 2cb0 6e38 bcea 323c

weight f4 [64, 256]
0.05166991 -0.009521544 -0.057627205 0.03680344 -0.017554197 -0.027216868 0.017681554 -0.013633348
-0.0051654754 0.041985076 -0.023252644 0.04059367 0.047655102 0.06308891 -0.023318991 -0.023454243
-0.041603353 0.019515319 -0.049097102 0.04371643 0.0054996405 -0.06645775 -0.013193712 0.022256043
0.005462829 -0.03618199 0.032181885 -0.0621802 -0.016953574 -0.057417177 0.06057416 0.0024663731
0.01865027 -0.00026546122 0.041451354 0.03982897 -0.024553217 -0.027884126 0.047169276 0.03534502
0.05788327 0.028148897 0.023967508 -0.05956891 0.060992137 0.0028674349 0.044083774 0.032545403
0.052899968 -0.061871648 -0.006495605 -0.03927988 0.03953873 0.048717875 0.035719372 0.04869517
-0.008089395 0.023760865 -0.024084358 -0.021569395 -0.06398508 -0.0062410906 0.026828397 0.066806056
-0.0026819953 -0.012629469 0.04353321 0.039344147 -0.0690075 -0.0011507028 -0.05168891 -0.008612378
0.02202144 -0.06251922 0.025224036 -0.03925786 0.016026169 0.019833295 -0.033452418 0.0136967
-0.016569851 -0.0013154172 0.008054719 0.057955712 -0.042668242 -0.061637472 -0.0372884 -0.048910804
0.0056874836 0.034004495 -0.042836335 0.019401353 0.051526904 0.051732708 -0.059209827 -0.050092686
0.021312691 -0.028844496 0.034980264 -0.015554535 -0.05529162 0.010803834 -0.045597196 -0.014652256
-0.020713968 -0.0036917287 -0.020589817 0.04536195 0.036101483 0.059717834 0.05745597 -0.029929696
0.010981122 0.028139193 -0.05783609 0.047621846 0.0024830503 0.024366288 0.028946035 0.055824824
-0.02799168 -0.006287654 -0.06983286 -0.0063493904 0.0041606543 -0.043132514 -0.0301321 0.03063477
-0.036868915 0.03924146 0.05221064 0.040445868 -0.040966824 0.033548992 -0.06548434 0.07050682
-0.026860943 -0.018377256 0.045119848 0.02178147 -0.031428885 0.031333365 0.0153022995 -0.04158562
-0.06767292 -0.021399295 -0.06394113 -0.054614 0.029125627 0.038973827 -0.014827616 -0.02583807
0.004176377 0.056816515 -0.06612101 -0.04836525 -0.021958569 0.02974418 0.03533353 -0.049751323
-0.0507518 -0.028250255 -0.06711039 0.033780895 -0.05088406 0.0051555512 -0.06433039 -0.047734056
0.057987995 0.019037873 0.019866085 -0.034020975 0.06068164 -0.052343212 -0.06677391 0.040877346
0.030751036 -0.037490737 -0.037205677 0.06867645 0.04232499 0.03786203 -0.022574767 0.04773072
0.02949152 -0.044937253 -0.0010736405 0.056335762 -0.038792416 0.015895646 -0.05075769 -0.023215877
0.025051493 0.062406655 0.022414219 -0.009949193 -0.017443484 -0.056082338 0.045538235 0.048142403
0.0037242193 -0.001001431 -0.0007721282 -0.053154644 -0.015605954 -0.041821387 -0.04774815 -0.014442908
-0.0074196947 0.011936024 -0.052273225 0.01813841 0.016642405 -0.045128837 0.0053754486 -0.008644605
0.020813253 -0.052786484 -0.012079306 -0.016739171 -0.010024868 0.051631566 0.036073025 0.0007192694
-0.02481023 -0.049897756 -0.046265017 -0.007368856 0.0053878515 -0.007366124 -0.048353694 -0.051330842
-0.016417671 0.04752088 -0.049570568 0.018897714 0.05990158 0.04462577 -0.051435832 -0.014742453
-0.039188694 0.044809476 0.048401337 -0.005075672 -0.012790933 -0.010098193 0.04202091 0.047791656
-0.020991737 -0.010509372 0.047138873 -0.026311899 0.050572462 0.021175379 0.042715 -0.04362411
00000000: d4a3 533d 4000 1cbc 810a 6cbd 34bf 163d
00000010: d2cd 8fbc e9f5 debc e8d8 903c 685e 5fbc
00000020: 2643 a9bb 8bf8 2b3d 547c bebc 8c45 263d
00000030: ff31 433d c234 813d 7807 bfbc 1d23 c0bc
00000040: 4768 2abd 97de 9f3c 0b1a 49bd 0010 333d
00000050: 5436 b43b 001b 88bd 702a 58bc 4e52 b63c
00000060: 8801 b33b 9133 14bd 27d1 033d aab0 7ebd
00000070: 39e2 8abc 462e 6bbd 9c1c 783d e0a2 213b
00000080: 73c8 983c 9a2d 8bb9 e5c8 293d b423 233d
00000090: d423 c9bc 406d e4bc 9234 413d f1c5 103d
000000a0: 0217 6d3d 8498 e63c 8257 c43c 88fe 73bd
000000b0: e4d2 793d 93eb 3b3b 3091 343d 544e 053d
000000c0: a3ad 583d 206d 7dbd 16d9 d4bb f0e3 20bd
000000d0: 5df3 213d 658c 473d 7a4e 123d 9674 473d
000000e0: 6289 04bc 25a6 c23c 8f4c c5bc 4db2 b0bc
000000f0: 9c0a 83bd 1082 ccbb 3ac7 db3c 9dd1 883d
00000100: 6ac4 2fbb d5eb 4ebc e14f 323d 5427 213d
00000110: ce53 8dbd 2ed3 96ba c0b7 53bd ee1a 0dbc
00000120: 4f66 b43c 140a 80bd a3a2 ce3c dacc 20bd
00000130: 5049 833c 6f79 a23c 6705 09bd 2068 603c
00000140: 7fbd 87bc 146a acba f1f7 033c f862 6d3d
00000150: e5c4 2ebd 9377 7cbd b9bb 18bd b256 48bd
00000160: 125e ba3b 4c48 0b3d 2775 2fbd 96ef 9e3c
00000170: e00d 533d ade5 533d 0186 72bd fd2d 4dbd
00000180: f497 ae3c 4b4b ecbc 7747 0f3d 73d8 7ebc
00000190: 7779 62bd 9002 313c 20c4 3abd 0410 70bc
000001a0: 57b0 a9bc eef0 71bb faab a8bc 74cd 393d
000001b0: 26df 133d b09a 743d f456 6b3d 1f2f f5bc
000001c0: 2aea 333c 2a84 e63c 89e5 6cbd 200f 433d
000001d0: acba 223b cf9b c73c 3c20 ed3c 92a8 643d
000001e0: cf4e e5bc aa08 cebb 8804 8fbd 8c0e d0bb
000001f0: 1956 883b b8ab 30bd 98d7 f6bc c5f5 fa3c
00000200: dc03 17bd a7bb 203d d3da 553d 91aa 253d
00000210: d4cc 27bd ab6a 093d a71c 86bd e165 903d
00000220: 7b0b dcbc e68b 96bc 97cf 383d 0e6f b23c
00000230: 93bb 00bd 6a57 003d 7fb6 7a3c af55 2abd
00000240: 1a98 8abd 934d afbc 91f3 82bd eeb2 5fbd
00000250: de98 ee3c 05a3 1f3d 87ef 72bc 5caa d3bc
00000260: fdd9 883b 6fb8 683d 746a 87bd a41a 46bd
00000270: 75e2 b3bc 11aa f33c e4b9 103d 0bc8 4bbd
00000280: 1fe1 4fbd 146d e7bc 2c71 89bd d65d 0a3d
00000290: ce6b 50bd e6ef a83b a7bf 83bd c984 43bd
000002a0: d284 6d3d 50f5 9b3c 33be a23c 9459 0bbd
000002b0: 508d 783d d665 56bd c2c0 88bd 016f 273d
000002c0: 99e9 fb3c e38f 19bd fb64 18bd 3da6 8c3d
000002d0: f85c 2d3d 3715 1b3d b8ee b8bc 4a81 433d
000002e0: 3398 f13c 2010 38bd 66b9 8cba 54c0 663d
000002f0: cce4 1ebd 9637 823c 4ce7 4fbd 392f bebc
00000300: ca38 cd3c 1f9e 7f3d 069e b73c f101 23bc
00000310: a3e5 8ebc 98b6 65bd 4d86 3a3d f830 453d
00000320: 0812 743b 7342 83ba a568 4aba afb8 59bd
00000330: 1eb0 7fbc e74c 2bbd 9093 43bd f2a1 6cbc
00000340: e920 f3bb 508f 433c 731c 56bd 0197 943c
00000350: a755 883c 04d9 38bd 8824 b03b 1aa2 0dbc
00000360: 8e80 aa3c a436 58bd 48e8 45bc 9620 89bc
00000370: 583f 24bc 9f7b 533d 4fc1 133d 5a8d 3c3a
00000380: d33e cbbc 9761 4cbd 6380 3dbd 7276 f1bb
00000390: 938c b03b 875f f1bb 860e 46bd 4a40 52bd
000003a0: 5a7e 86bc 41a5 423d 820a 4bbd 61cf 9a3c
000003b0: 5c5b 753d 83c9 363d 61ae 52bd 548a 71bc
000003c0: 5384 20bd 248a 373d 7b40 463d d351 a6bb
000003d0: 1091 51bc e472 25bc 1e1e 2c3d 2fc1 433d
000003e0: ddf6 abbc 802f 2cbc b114 413d 0d8c d7bc
000003f0: 1225 4f3d fd77 ad3c edf5 2e3d 32af 32bd

bias f4 [64]
0.008257299 0.062161565 0.040115368 0.02569988 -0.004961601 -0.03760836 0.049903583 0.026849102
-0.03108255 0.023160744 0.006885659 0.0049852747 0.0090306755 0.032651242 -0.022573791 -0.057247758
-0.061187416 0.0003188768 -0.008289576 -0.010402905 0.015415954 -0.027856749 0.046662822 -0.04066878
-0.050425828 0.0059116995 0.018498164 -0.0076034116 0.012901204 -0.041165516 0.06676868 0.010107334
0.00029375896 -0.049622793 -0.042106207 0.020212576 0.0009171002 0.047179725 0.048101664 0.034563188
-0.032538466 0.018985484 -0.0069962176 0.051962268 -0.050022777 -0.018680036 0.006127177 -0.052254125
0.0018816665 -0.04709774 0.039570734 -0.031887803 0.025151845 -0.047058783 -0.0046879956 -0.016897848
-0.04496758 0.008734678 -0.013444735 -0.0059505175 -0.006218453 0.0038005789 -0.05541044 -0.013123517
00000000: 9f49 073c 209d 7e3d 0350 243d 8e88 d23c
00000010: ed94 a2bb 390b 1abd b367 4c3d a6f2 db3c
00000020: d5a0 febc 9abb bd3c 18a1 e13b 845b a33b
00000030: 66f5 133c 4fbd 053d acec b8bc a07c 6abd
00000040: a89f 7abd eb2e a739 00d1 07bc f270 2abc
00000050: 3393 7c3c d633 e4bc 8421 3f3d 4f94 26bd
00000060: 508b 4ebd eeb6 c13b 7689 973c 0a26 f9bb
00000070: 925f 533c 2c9d 28bd 05be 883d 3b99 253c
00000080: a903 9a39 4541 4bbd 8f77 2cbd d894 a53c
00000090: 8d69 703a 873f 413d 4006 453d 2192 0d3d
000000a0: 0e47 05bd 7287 9b3c 8740 e5bb 63d6 543d
000000b0: afe4 4cbd e006 99bc 7cc6 c83b 6c08 56bd
000000c0: 40a2 f63a 8fe9 40bd ec14 223d c99c 02bd
000000d0: 3e0b ce3c b6c0 40bd c29d 99bb 5b6d 8abc
000000e0: ed2f 38bd e51b 0f3c 4e47 5cbc 8ffc c2bb
000000f0: 2ac4 cbbb 2213 793b 0ff6 62bd 0504 57bc

weight f4 [1, 64]
-0.031007016 -0.06973586 -0.056211874 -0.006788173 0.038415093 0.07463149 -0.062331602 -0.014758985
-0.032043822 0.006796949 -0.0034233509 -0.08812882 0.030616244 0.03434899 0.036262546 0.026661228
0.08795169 -0.10292964 -0.10295172 -0.025092743 0.0440566 -0.007448517 -0.11232161 0.07283833
0.08527512 0.04235863 0.06949749 0.001453663 0.038394514 0.07171511 0.00867078 -0.106607795
-0.11786932 -0.08335438 -0.08117516 -0.03271843 -0.0053211804 0.036473196 -0.07398587 0.06104106
0.08089737 0.0322019 0.0058647655 -0.03565489 -0.04377865 0.00031871456 -0.0054669054 0.00045954133
-0.014597229 0.005910654 -0.001685927 -0.011800977 0.09513589 0.09246254 0.093369514 0.006898917
-0.0985247 0.0073489062 -0.08624051 0.02215446 -0.09580621 0.05133453 0.092202075 0.10765457
00000000: 6d02 febc add1 8ebd 6c3e 66bd 536f debb
00000010: 2559 1d3d 65d8 983d 6c4f 7fbd abcf 71bc
00000020: 6240 03bd f1b8 de3b 4c5a 60bb e27c b4bd
00000030: ebce fa3c 87b1 0c3d 0988 143d a668 da3c
00000040: 0420 b43d c6cc d2bd 5ad8 d2bd 4c8f cdbc
00000050: b274 343d b012 f4bb df08 e6bd 432c 953d
00000060: b9a4 ae3d 3e80 2d3d b354 8e3d d688 be3a
00000070: 9143 1d3d 5fdf 923d e30f 0e3c 3055 dabd
00000080: 7865 f1bd b4b5 aabd 2a3f a6bd c303 06bd
00000090: 4c5d aebb eb64 153d e785 97bd 3106 7a3d
000000a0: 85ad a53d 24e6 033d 382d c03b dd0a 12bd
000000b0: 3e51 33bd 2519 a739 ba23 b3bb 98ee f039
000000c0: 3729 6fbc 29ae c13b 53fa dcba e358 41bc
000000d0: 9bd6 c23d 005d bd3d 8438 bf3d 4f10 e23b
000000e0: 51c7 c9bd 18cf f03b dd9e b0bd 457d b53c
000000f0: 0c36 c4bd 2844 523d 71d4 bc3d 007a dc3d
