TrainedModels/NN_multi_0.775.pt (torch, 230007 bytes, 7 tensors)

weight f4 [128, 54]
0	0xbbbb1f19	-0.0057104942
1	0x3d781ff8	0.060577363
2	0xbde35a5f	-0.11101221
3	0xbd5d9c36	-0.054104052
4	0x3d170a4e	0.03687506
5	0x3d9a31e1	0.07529045
6	0x3dc9af1e	0.09847854
7	0xbde6b004	-0.11264041
8	0x3da8ebee	0.08248125
9	0xbcd65f5b	-0.026168516
10	0x3d911cc2	0.07085563
11	0x3d6e8c6b	0.05823938
12	0x3d328b31	0.043589775
13	0xbdb33545	-0.08750395
14	0xbdc4386b	-0.095810734
15	0x3c0de18c	0.008659732
16	0x3e0d28c7	0.13785087
17	0xbdb2a8ae	-0.08723579
18	0xbe0cf367	-0.13764726
19	0x3da7990b	0.081834875
20	0xbcf189e1	-0.029484691
21	0xbdd0fcbc	-0.10204455
22	0x3d589957	0.05288061
23	0x3e0ff144	0.1405688
24	0xbc085106	-0.008320099
25	0x3d753b10	0.05987078
26	0x3d29e907	0.041481998
27	0xbd9ef464	-0.077614576
28	0x3c9273b0	0.01787743
29	0xbcdc17fd	-0.026866907
30	0xbc4acc71	-0.012377844
31	0x3df4253f	0.11921167
32	0xbd0f425a	-0.034975387
33	0x3dd24734	0.10267487
34	0xbdd0be2c	-0.101925224
35	0x3ba3ccd0	0.004998781
36	0x3d2b73e5	0.041858573
37	0xbd069c07	-0.032863643
38	0xbd9f3f4f	-0.07775747
39	0x3c0b3196	0.008495709
40	0x3e0eb692	0.13936833
41	0x3db479be	0.08812283
42	0xbdbd9869	-0.092575856
43	0x3c3f20c8	0.0116655305
44	0xbdf42c23	-0.11922481
45	0xbe02ff7f	-0.12792777
46	0x3d291d8d	0.041287947
47	0x3d133922	0.035943158
48	0xbc55c62e	-0.013047738
49	0xbd29bb5d	-0.04143845
50	0x3b31b42c	0.0027115447
51	0xbdde05a3	-0.10840919
52	0x3dca22f6	0.098699495
53	0x3c810bad	0.015752638
54	0x3dea965c	0.1145446
55	0xbe0da62e	-0.13832924
56	0xbe0b2fc6	-0.13592443
57	0x3d810f28	0.06301719
58	0x3ddcdd38	0.10784382
59	0xbe0072cc	-0.12543792
60	0xbcdca629	-0.0269347
61	0xbd8b454a	-0.06800325
62	0xbcc15460	-0.023599803
63	0xbd17bc53	-0.037044834
64	0xbca49844	-0.020092137
65	0x3dea889a	0.11451836
66	0x3dd49aab	0.10381063
67	0xbd189d6e	-0.03725951
68	0x3e171d9e	0.14757392
69	0x3dfc9818	0.12333697
70	0x3e023a3c	0.12717527
71	0x3d8e46f4	0.06947127
72	0x3d94fe65	0.072750844
73	0xbe04e862	-0.12979272
74	0xbdaedbd8	-0.085380256
75	0xbdafa58a	-0.08576496
76	0xbdadbc6f	-0.084832065
77	0xbd4abf3f	-0.049498793
78	0xbd9b3e6d	-0.07580266
79	0x3d8b86da	0.0681283
80	0x3e0e0c86	0.13871965
81	0x3dd941b2	0.106082335
82	0xbdba9bc2	-0.0911174
83	0xbdd20223	-0.10254314
84	0x3cb7cda3	0.022436922
85	0xbdf3f30a	-0.119115904
86	0xbe02f9e8	-0.12790644
87	0x3d154300	0.03644085
88	0xbd5d0787	-0.053962257
89	0x3d90f737	0.070784025
90	0xbdcea04e	-0.100891694
91	0xbdf2f4bf	-0.11863088
92	0xbd2c4703	-0.04205991
93	0xbdd632e3	-0.104589246
94	0xbdd90baa	-0.10597928
95	0xbda4e1ff	-0.08050918
96	0x3b24f145	0.0025168222
97	0xbcd5aafa	-0.026082505
98	0x3ab3546e	0.0013681778
99	0xbdf2a2fc	-0.11847493
100	0xbe1548db	-0.14578573
101	0xbe0d6cef	-0.13811086
102	0xbe0e7330	-0.13911128
103	0xbd1fc65e	-0.039007537
104	0xbdf1ddd2	-0.11809887
105	0xbe154869	-0.14578404
106	0x3d59c85d	0.053169597
107	0xbdef157f	-0.11674022
108	0xbd6b012c	-0.057374164
109	0xbc674a29	-0.014116802
110	0x3dde6a91	0.1086017
111	0xbd713c30	-0.05889529
112	0x3e16a3d3	0.14710931
113	0xbd10baa1	-0.035334233
114	0xbc9d2463	-0.01918239
115	0xbd831306	-0.06400113
116	0x3b6614ad	0.0035107539
117	0x3d2ec3cb	0.04266719
118	0x3da2e393	0.079535626
119	0x3d83118e	0.06399833
120	0xbd1d206e	-0.038361005
121	0xbc1968ec	-0.009363394
122	0xbb256c15	-0.0025241424
123	0x3dc50e55	0.09621874
124	0x3d55b8e1	0.052178267
125	0x3e33032f	0.17481683
126	0xbb78cf82	-0.0037965481
127	0xbd973a83	-0.07384207
128	0x3dd712af	0.105016105
129	0x3d839a07	0.06425863
130	0xbdaafc0f	-0.083488576
131	0xbde4a58b	-0.11164387
132	0x3d83ae16	0.06429689
133	0x3dc60107	0.09668165
134	0xbd0dd79f	-0.03462946
135	0x3cb67c2f	0.022276012
136	0x3e129ab4	0.14316827
137	0x3d88b20e	0.06674586
138	0xbc776319	-0.01509931
139	0xbc20c4ff	-0.0098125925
140	0xbd563935	-0.05230065
141	0x3dbad263	0.09122159
142	0x3d946fe1	0.07247902
143	0x3df1b2bf	0.11801671
144	0x3d658e52	0.05604393
145	0x3dd58f49	0.1042772
146	0x3d8dbe3e	0.069210514
147	0x3de8c904	0.11366466
148	0x3e1b3bab	0.1515948
149	0x3e09ee94	0.13469917
150	0x3cc8b084	0.024498232
151	0x3dc86fbf	0.09786939
152	0xbde2b3a0	-0.11069417
153	0x3dbb018e	0.09131156
154	0xbdf1aee1	-0.11800934
155	0x3dad9137	0.08474963
156	0xbd56a94f	-0.05240756
157	0x3d906f5e	0.070524916
158	0xbd2936a1	-0.041311864
159	0xbdde2e38	-0.10848659
160	0x3d28e594	0.041234568
161	0xbc415951	-0.01180108
162	0x3d608b37	0.054820266
163	0xbdde8977	-0.10866063
164	0xbdc7c535	-0.09754411
165	0x3cbe94a2	0.023264233
166	0x3dde58d2	0.10856785
167	0x3d31f099	0.043442342
168	0x3d968bf6	0.07350914
169	0xbdf161cf	-0.11786234
170	0x3dfedea3	0.12444808
171	0xbe03935e	-0.12849185
172	0x3b2a747e	0.0026009376
173	0xbdd06a84	-0.10176566
174	0x3d8bd0ee	0.068269596
175	0xbdbcc3d7	-0.09217041
176	0xbdefc64c	-0.11707744
177	0x3d822293	0.06354251
178	0xbdbecd7f	-0.09316539
179	0xbdfbf542	-0.123026386
180	0x3d808bdc	0.06276676
181	0x3d51ccdc	0.05122076
182	0x3d986fed	0.07443223
183	0xbd9ff49f	-0.0781033
184	0xbd860fe3	-0.06545999
185	0xbd80c01f	-0.06286644
186	0x3d803e8f	0.06261932
187	0x3e0f2b49	0.13981356
188	0x3d9fbd3d	0.07799766
189	0x3e0150f8	0.12628543
190	0x3d091c1b	0.03347407
191	0xbda48d30	-0.08034742
192	0x3d8c5771	0.068526156
193	0x3de7cf59	0.11318845
194	0xbe05ab09	-0.13053526
195	0xbe1c642f	-0.15272592
196	0x3da2a97c	0.07942483
197	0x3d377cd9	0.0447968
198	0x3dc4d944	0.09611753
199	0x3d139d7e	0.036038868
200	0x3cb594fc	0.022165768
201	0xbd6258a9	-0.055260334
202	0x3d04d375	0.032428224
203	0x3d8593f1	0.06522358
204	0x3e0ebcfb	0.13939278
205	0xbdaef891	-0.08543504
206	0xbdba8b76	-0.09108631
207	0x3df92ed6	0.12167136
208	0x3d77666a	0.060400404
209	0x3ce17ec2	0.027526263
210	0x3c77490c	0.015093099
211	0x3e1b3079	0.1515521
212	0xbdd27528	-0.10276252
213	0x3ca0af6d	0.0196149
214	0x3d06cf01	0.032912258
215	0x3dabdc19	0.0839159
216	0xbcc3072c	-0.02380713
217	0xbc17366b	-0.009229283
218	0xbd186df5	-0.03721424
219	0x3e10ec05	0.14152534
220	0x3ddfabc3	0.10921433
221	0xbcb75b44	-0.022382386
222	0xbd326232	-0.043550678
223	0xbdbcb1b7	-0.09213584
224	0x3dd691e4	0.10477045
225	0xbdcaa953	-0.09895577
226	0xbe06dac2	-0.13169387
227	0xbdfe00f6	-0.12402527
228	0x3e06919e	0.13141486
229	0xbce51946	-0.027966153
230	0x3dde71cb	0.10861548
231	0x3d4fe589	0.05075601
232	0x3c749d75	0.014930119
233	0x3c5b4270	0.013382539
234	0xbd9f8ff1	-0.077911265
235	0x3d5e1bbd	0.054225672
236	0x3cdeed7c	0.02721285
237	0x3cb1305f	0.02162951
238	0xbd7f4109	-0.06231788
239	0x3d357e34	0.04430981
240	0xbb3485cc	-0.002754557
241	0x3d7e7155	0.0621198
242	0xbde84e24	-0.11343029
243	0xbe08fcba	-0.13377658
244	0x3d3530e5	0.044236083
245	0xbdd36643	-0.10322239
246	0x3d2187e1	0.039436225
247	0xbe19d152	-0.15021256
248	0x3deb6722	0.114942804
249	0x3da79e19	0.081844516
250	0x3d87a661	0.06623531
251	0x3e2609b3	0.16214637
252	0x3d4d48b0	0.05011815
253	0x3d5fbbcb	0.054622453
254	0x3d297dca	0.041379727
255	0xbd98fda3	-0.07470252

bias f4 [128]
0	0xbdf8fe75	-0.12157909
1	0x3d8b5631	0.06803549
2	0x3d80a281	0.06280995
3	0x3d1c5f4a	0.038176812
4	0x3d8f7c10	0.07006085
5	0xbdc114fa	-0.09427829
6	0x3dadb401	0.08481599
7	0x3ddbda73	0.10735025
8	0xbd8e3c5f	-0.069451086
9	0x3d38dd61	0.045133
10	0xbd5cb249	-0.053880963
11	0x3d9168ec	0.071000904
12	0x3decc0a5	0.115601815
13	0xbdda4024	-0.10656765
14	0x3e036d2c	0.12834615
15	0x3d9c59e7	0.07634335
16	0xbd599f2f	-0.053130325
17	0x3de0905e	0.10965036
18	0xbb0c872c	-0.0021442873
19	0xbb08d880	-0.0020880997
20	0xbd40508b	-0.04695181
21	0xbb4a81c4	-0.00309001
22	0xbdad66bc	-0.08466861
23	0xbddc9ee4	-0.107724935
24	0x3d4a8d01	0.049450878
25	0xbd93dc88	-0.072197974
26	0xbcdf0427	-0.02722366
27	0x3df5b03f	0.11996507
28	0x3ca4a1fe	0.020096775
29	0xbc9b9f8f	-0.018996982
30	0xbcefb559	-0.029261278
31	0xbd3fae55	-0.046797115
32	0x3db67723	0.08909442
33	0xbcf1f071	-0.029533597
34	0xbdc6cbb2	-0.097068205
35	0x3c78bdfe	0.015182016
36	0xbd7ba847	-0.06143978
37	0xbd85c3d9	-0.065314956
38	0x3d32f84c	0.043693826
39	0xbd25a1cf	-0.040437516
40	0x3d789a0f	0.060693797
41	0xbd957ef6	-0.072996065
42	0x3dcd3167	0.100191884
43	0xbd995cf0	-0.074884295
44	0xbb9f835e	-0.004867955
45	0xbdf0e36c	-0.11762127
46	0x3dd3d70b	0.103437506
47	0x3d780891	0.060555045
48	0x3dcf3525	0.101175584
49	0xbdedcbef	-0.11611163
50	0xbdbf0add	-0.09328244
51	0xbd430941	-0.047616247
52	0x3db946b9	0.090466924
53	0x3d10230e	0.03518968
54	0x3dd542d1	0.10413135
55	0x3dea71a5	0.11447457
56	0xbd93cda4	-0.07216957
57	0xbd83e1a6	-0.064395234
58	0xbdb4da0b	-0.08830651
59	0xbc91e8a5	-0.017811129
60	0x3d22c9bc	0.03974317
61	0xbd5a0028	-0.053222805
62	0xbb506de4	-0.0031803781
63	0x3deef822	0.11668421
64	0xbd64e254	-0.055879906
65	0xbccd65ed	-0.025073016
66	0xbb1cc644	-0.0023921886
67	0xbd0ad456	-0.033893906
68	0xbdc55faf	-0.09637391
69	0xbe13ed56	-0.14446005
70	0xbdc50e5e	-0.09621881
71	0x3d7bbcbf	0.0614593
72	0xbe045bbc	-0.12925619
73	0xbe170982	-0.1474972
74	0x3e11c71f	0.14236115
75	0xbcc4c39f	-0.02401906
76	0xbcdea0d3	-0.027176296
77	0x3dc3afbb	0.09555002
78	0xbd692c90	-0.056927264
79	0xbdafdab2	-0.08586635
80	0x3c502b39	0.012705618
81	0xbd5fb07d	-0.05461167
82	0xbdeacc1c	-0.11464712
83	0xbc8d4261	-0.017243566
84	0xbc6c1b53	-0.0144108115
85	0x3e0c830d	0.13721867
86	0x3db2e307	0.08734708
87	0x3dd95707	0.10612302
88	0xbd97d062	-0.07412793
89	0x3cae57db	0.021282127
90	0x3dbcfbd5	0.09227721
91	0x3dfa7b85	0.12230591
92	0x3d2dd63f	0.04244065
93	0xbdb83831	-0.08995093
94	0x3ded4338	0.115850866
95	0x3dee2a24	0.116291314
96	0x3d4e9d62	0.05044306
97	0x3b69f19b	0.0035696987
98	0x3e152d1c	0.14567989
99	0x3dd9076a	0.10597117
100	0xbdef4ab9	-0.11684174
101	0xbe053cb6	-0.1301144
102	0xbd3e6b10	-0.04648882
103	0xbd872b9b	-0.06600114
104	0xbdf205f3	-0.11817541
105	0xbd00994e	-0.031396203
106	0xbe0b277e	-0.13589284
107	0xbdbbf9c0	-0.091784954
108	0x3d9b6fda	0.07589693
109	0xbd6f604a	-0.058441438
110	0xbc11f5ef	-0.008908733
111	0x3d1fb7cf	0.038993653
112	0x3d0f79c6	0.03502824
113	0xbc5c92b8	-0.013462715
114	0xbba7759c	-0.0051104557
115	0x3b31a81c	0.0027108258
116	0x3dab0003	0.083496116
117	0xbd503fa3	-0.05084194
118	0x3d822f6b	0.063567005
119	0x3e03ff6f	0.12890409
120	0xbcf07e74	-0.029357173
121	0x3daf98fb	0.085741006
122	0xbd6a8f5e	-0.05726563
123	0xbc100336	-0.008789828
124	0xbd1673ee	-0.036731653
125	0x3d5b6722	0.053565152
126	0x3db3f156	0.087862656
127	0x3ddd52ce	0.10806809

weight f4 [256, 128]
0	0xbabd3b80	-0.0014437288
1	0xbcc1ba41	-0.023648383
2	0x3b9a6810	0.0047121122
3	0xbc2438ad	-0.010023278
4	0x3d3708d1	0.044686142
5	0x3d49e9f2	0.049295373
6	0xbda2ed45	-0.07955412
7	0xbc92ad4a	-0.017904896
8	0xbdb5a647	-0.088696055
9	0xbd6b4cb1	-0.057446185
10	0x3d12aef7	0.03581139
11	0x3d3d9dae	0.046292953
12	0xbdaf4bd3	-0.08559384
13	0xbcb67050	-0.022270352
14	0x3ca7d07e	0.020485159
15	0x3caecbb2	0.021337364
16	0xbd58de1a	-0.052946188
17	0xbdb2719e	-0.08713077
18	0x3cff91c7	0.031197442
19	0xbd8a88a7	-0.067643456
20	0xbd6f22e9	-0.058382902
21	0x3d7ee275	0.062227685
22	0x3d2b0e9c	0.04176198
23	0x3b5ea6ec	0.0033974005
24	0xbd5471c2	-0.0518663
25	0x3d8b7156	0.068087265
26	0x3d6ac6e2	0.057318576
27	0xbd7801ad	-0.060548473
28	0xbd47f964	-0.04882182
29	0x3d7b325f	0.061327334
30	0x3c842c10	0.016134292
31	0xbcf160d1	-0.029465111
32	0xbda63870	-0.08116233
33	0xbd8c332b	-0.06845697
34	0x3b03bc92	0.002010141
35	0x3ce1d1a9	0.027565794
36	0x3d392acb	0.045206826
37	0xbd3a832f	-0.045535263
38	0x3c2aa2b8	0.010414772
39	0x3c8189aa	0.015812714
40	0x3d8df72b	0.06931909
41	0x3de70571	0.11280335
42	0x3d48aad9	0.048991058
43	0x3d9fecdd	0.0780885
44	0x3c2395c8	0.009984441
45	0xbd26babb	-0.040705424
46	0x3c7ca4a6	0.015420115
47	0x3d88249b	0.06647607
48	0x3d7d7ec0	0.061888456
49	0xbcaa5f16	-0.020797294
50	0xbd756a65	-0.05991592
51	0xbd710f9c	-0.058852777
52	0xbd6a5944	-0.057214037
53	0xbc806613	-0.015673673
54	0x3d00e507	0.031468417
55	0x3d781842	0.06057001
56	0xbd7a6cab	-0.06113879
57	0xbd87cc97	-0.06630819
58	0x3d31117d	0.04322957
59	0xbd9e3749	-0.077253886
60	0x3dfa86c9	0.122327395
61	0x3cea127d	0.028573269
62	0xbd35f57d	-0.04442357
63	0xbd645d05	-0.055752773
64	0xbb8a5a39	-0.004222181
65	0x3d855894	0.065110356
66	0x3cf4676e	0.029834475
67	0x3c8cb3cf	0.017175583
68	0xbc5fa30c	-0.013649713
69	0xbd938597	-0.072032146
70	0x3dc4604e	0.09588681
71	0x3d3393f9	0.04384229
72	0xbd8ec1f5	-0.06970588
73	0xbd10ac7d	-0.035320748
74	0xbd47f41e	-0.048816793
75	0x3d9d2f2e	0.076750144
76	0x3ca47b8e	0.020078447
77	0xbcb6a3dc	-0.022294931
78	0xbd19f55f	-0.03758752
79	0xbc1601c5	-0.009155695
80	0x3d140405	0.036136646
81	0x3d83c2cc	0.06433639
82	0xbbf74fc0	-0.0075473487
83	0xbd58143c	-0.052753672
84	0x3d9fb209	0.077976294
85	0xbd887056	-0.066620514
86	0xbd3f2e1e	-0.04667484
87	0x3ce93430	0.028467268
88	0xbd829185	-0.06375412
89	0xbd28ab53	-0.041179013
90	0x3d3c2ee1	0.045943145
91	0xbc9aef4f	-0.01891294
92	0x3c9d8606	0.019228946
93	0x3d22f5a3	0.03978504
94	0x3da5fab7	0.08104461
95	0x3d87ca71	0.066304095
96	0xbd22e3ba	-0.03976796
97	0xbd30ab75	-0.043132264
98	0xbda3ce90	-0.07998383
99	0x3da77d88	0.0817824
100	0x3d8082b1	0.062749274
101	0xbdb2edc0	-0.087367535
102	0x3d1f5adb	0.038905006
103	0xbda0d4fa	-0.07853122
104	0xbbc4215d	-0.0059854225
105	0x3affceba	0.0019516565
106	0x3cf766b1	0.030200334
107	0xbcd25e23	-0.025679654
108	0xbcd02f3c	-0.025413148
109	0xbc61ec37	-0.013789228
110	0x3db818e3	0.08989122
111	0xbd8a844b	-0.06763514
112	0xbd6de6c9	-0.058081422
113	0xbd74635f	-0.05966508
114	0x3cad50b5	0.021156648
115	0x3bbccb71	0.005761557
116	0x3d82b40e	0.06381999
117	0x3d297e3d	0.041380156
118	0xbcaeeed9	-0.021354126
119	0xbc452d5d	-0.012034741
120	0x3c67452b	0.014115612
121	0x3d8d37bd	0.06895397
122	0xbd1d41f3	-0.038392972
123	0xbd1fcfd5	-0.039016563
124	0xbda1c724	-0.07899311
125	0xbd360cfc	-0.044445977
126	0xbd0b2e23	-0.033979546
127	0xbd6d16f8	-0.057883233
128	0x3d5ce5bf	0.05393004
129	0xbc949a68	-0.018140033
130	0x3d149325	0.03627314
131	0x3d0282aa	0.031862892
132	0x3d93e610	0.07221615
133	0x39acd400	0.0003296435
134	0x3c9281ce	0.017884161
135	0x3ca3ab9f	0.019979296
136	0xbda46955	-0.08027903
137	0x3d831ea6	0.0640233
138	0xbc18dacc	-0.009329509
139	0x3c901870	0.017589778
140	0xbd81c8e8	-0.06337148
141	0x3ca4e969	0.02013083
142	0xbd64dd2e	-0.055874996
143	0x3d677433	0.0565073
144	0x3c4b215c	0.01239809
145	0x3d593c15	0.053035814
146	0x3d7518b9	0.05983803
147	0x3c4a7111	0.012356059
148	0xbd79ea36	-0.061014377
149	0x3cc8a159	0.024490999
150	0xbd379744	-0.044821993
151	0xbd9c6e88	-0.0763827
152	0x3c071e44	0.008246962
153	0x3d99e68a	0.07514675
154	0x3d998e4b	0.07497843
155	0xbcc925c8	-0.024554148
156	0xbdac859c	-0.084239215
157	0xbd757671	-0.059927408
158	0xbd1c8ac2	-0.038218267
159	0x3cb2fdaa	0.021849472
160	0xbdb35104	-0.08755687
161	0xbd29a739	-0.04141924
162	0x3cec7e4a	0.028868813
163	0xbd9e5156	-0.07730357
164	0x3bb03949	0.0053779227
165	0xbd68d56f	-0.05684417
166	0x3cd6a8fe	0.026203629
167	0x3d856825	0.065140046
168	0x3cdd7ff4	0.027038552
169	0xbd398298	-0.04529056
170	0x3d286126	0.041108273
171	0xbd96d608	-0.07365042
172	0xbd97a84c	-0.07405147
173	0x3de4e301	0.1117611
174	0xbcbe1bd7	-0.023206634
175	0xbd553bb7	-0.0520589
176	0x3ca53fd4	0.020172037
177	0xbda801dd	-0.082034804
178	0xbd49aa03	-0.0492344
179	0x3dadd015	0.08486954
180	0x3c5f004b	0.01361091
181	0x3b3b0e73	0.0028542548
182	0x3cef2d57	0.029196424
183	0x3c2ee742	0.010675253
184	0xb93d72c8	-0.00018067204
185	0xbd8dbf48	-0.0692125
186	0xbd26344a	-0.04057721
187	0x3d941564	0.072306424
188	0x3d35d853	0.044395756
189	0x3da710f7	0.08157533
190	0x3d3f07b5	0.04663821
191	0x3c891056	0.016731422
192	0x3d63eea8	0.055647522
193	0xbc9fe8d7	-0.019520206
194	0x3d03ecf9	0.032208417
195	0xbcea7d16	-0.028624099
196	0xbd4dd401	-0.05025101
197	0x3d8d572b	0.069013916
198	0xbd3c4285	-0.045961875
199	0xbcc6caf8	-0.024266705
200	0xbc26c933	-0.010179806
201	0x3d3347a0	0.04376948
202	0x3dcc60f4	0.0997943
203	0x3d9bdd1c	0.07610533
204	0xbda726df	-0.08161711
205	0x3db51999	0.08842773
206	0x3cde663a	0.027148355
207	0x3c72a3c6	0.014809554
208	0x3d850f94	0.06497112
209	0xbd1eb682	-0.03874827
210	0x3ced9d65	0.029005716
211	0x3bb069eb	0.00538372
212	0x3d437ab6	0.04772445
213	0xbd013133	-0.03154106
214	0xbd361529	-0.044453774
215	0x3cb72fbe	0.022361632
216	0x3d3c905e	0.046036117
217	0x3c7dbce5	0.0154869305
218	0xbdaa0dc7	-0.08303409
219	0x3d75e592	0.06003339
220	0xbadb62d4	-0.0016737827
221	0x3dace363	0.08441808
222	0xbcdcef8a	-0.02696969
223	0xbc9061e3	-0.017624801
224	0xbcefe2f9	-0.029283034
225	0xbd0699aa	-0.03286139
226	0xbd836f71	-0.0641774
227	0x3ca2f966	0.019894313
228	0x3ce4f852	0.02795044
229	0xbdba99d6	-0.09111373
230	0x3d340f4c	0.0439599
231	0x3d0178d9	0.03160939
232	0xbda42ecb	-0.080167376
233	0x3d8df4c3	0.0693145
234	0xbd06c937	-0.032906737
235	0x3d5f552a	0.05452458
236	0x3c908027	0.017639233
237	0xbd95f394	-0.073218495
238	0xbc88f3f3	-0.016717887
239	0xbd26505f	-0.04060399
240	0xbd26e8a3	-0.040749203
241	0xbd0f9a0b	-0.035059016
242	0x3d240497	0.04004344
243	0xbd1f4652	-0.038885422
244	0x3c92e8d7	0.017933292
245	0x3d0a20c7	0.033722665
246	0xbd0e6179	-0.034760926
247	0x3c52d590	0.0128683
248	0x3db13a8d	0.08653746
249	0xbd6795e1	-0.05653942
250	0xbd8d6682	-0.069043174
251	0x3c5579c3	0.013029519
252	0xbd3178a5	-0.043327946
253	0xbda28234	-0.079349905
254	0x3d1a3ae4	0.03765382
255	0x3d6b6f33	0.057479095

bias f4 [256]
0	0xbd33000b	-0.043701213
1	0xbdaf632e	-0.08563839
2	0x3d2f5d26	0.042813443
3	0xbd4fee14	-0.05076416
4	0x3d9f62e1	0.077825315
5	0xbd665da1	-0.056241635
6	0xbc745329	-0.014912405
7	0x3bbce717	0.0057648527
8	0x3d0871b4	0.03331156
9	0xbcb4fdfd	-0.022093767
10	0x3da039c5	0.07823519
11	0x3d132969	0.035928164
12	0x3d76cb06	0.060252212
13	0x3d3ec8bf	0.046578165
14	0xb7ce53e0	-2.4596171e-05
15	0xbdb0239f	-0.08600544
16	0xbda4526b	-0.080235325
17	0xbd06de11	-0.032926623
18	0xbd833f49	-0.06408555
19	0x3cc080f8	0.023498997
20	0x3d990051	0.074707635
21	0x3a851f95	0.0010156507
22	0x3c8b95c4	0.017039187
23	0xbcdae5d4	-0.026720919
24	0x3aabc598	0.0013105152
25	0x3bbdd12d	0.005792758
26	0x3ce58073	0.02801535
27	0xbd45e807	-0.04831698
28	0x3d7acf39	0.06123278
29	0x3ce9f5ef	0.028559653
30	0xbba73035	-0.0051021823
31	0x3dc242e9	0.09485418
32	0xbd368a58	-0.04456553
33	0x3c5987f7	0.013277045
34	0x3d81e210	0.06341946
35	0x3d73ddcc	0.059537694
36	0xbd8839a5	-0.0665162
37	0xbd0fddf2	-0.035123773
38	0xbd814dad	-0.063136436
39	0xbd796704	-0.06088926
40	0x3d87c88d	0.06630049
41	0x3bc9fc68	0.0061641224
42	0x3d46df80	0.04855299
43	0xbd4656e7	-0.04842272
44	0x3cc52855	0.024067083
45	0xbcc8d37b	-0.024514904
46	0xbd20498d	-0.039132643
47	0xbcd6ae29	-0.026206093
48	0x3d4a3bc4	0.049373403
49	0x3d6481de	0.055787914
50	0xbd88c86e	-0.06678854
51	0xbda99d6d	-0.0828198
52	0xbd0db413	-0.03459556
53	0x3da8f3a7	0.08249598
54	0x3c549aca	0.012976358
55	0x3d1d8a7c	0.038462147
56	0xbd91ad96	-0.07113187
57	0x3d18c6df	0.037299033
58	0xbc7a72fe	-0.015286205
59	0xbd8dc2ac	-0.06921896
60	0xbbef7d84	-0.007308664
61	0x3d623e8c	0.05523543
62	0xbda7474c	-0.08167896
63	0xbd97d001	-0.074127205
64	0xbd8d242d	-0.068916656
65	0x3cde38eb	0.02712675
66	0xbd6808de	-0.05664908
67	0x3d3c4944	0.04596831
68	0x3d261f3e	0.04055714
69	0xbd93e2f8	-0.07221025
70	0xbd4bb980	-0.049737453
71	0xbdb2f860	-0.0873878
72	0xbd728b59	-0.059214924
73	0xbd2cfdc7	-0.04223421
74	0xbd14530a	-0.036212005
75	0xbda78a70	-0.08180702
76	0x3bc4e278	0.0060084425
77	0xbda25b1f	-0.07927536
78	0x3cc4f09f	0.024040518
79	0x3b650f86	0.003495188
80	0x3d35111b	0.044205766
81	0x3d901979	0.070361085
82	0xbd63e378	-0.055636853
83	0x3caf6669	0.021411138
84	0xbd82b1cc	-0.06381568
85	0xbd2abf8c	-0.04168658
86	0xbd82d09d	-0.06387446
87	0x3d8419ff	0.06450271
88	0x3d3beccf	0.045880135
89	0xbbccef4d	-0.006254113
90	0xbda38029	-0.07983429
91	0xbce1e8af	-0.027576772
92	0xbc4af3db	-0.012387241
93	0xbc9a4e50	-0.01883617
94	0x3cd97250	0.026543766
95	0x3c58bae3	0.013228151
96	0x3ce724ff	0.028215883
97	0xbc18e94c	-0.009332966
98	0xbda31b60	-0.07964206
99	0xbd8e7eeb	-0.069578014
100	0xbc82bc83	-0.01595903
101	0x3c830f0e	0.01599839
102	0x3d161a4c	0.036646172
103	0x3c868c8d	0.016424442
104	0x3c0581f0	0.008148655
105	0x3d0c3e3d	0.034239043
106	0xbd9a9e58	-0.07549733
107	0xbcaf7014	-0.021415748
108	0xbd7bcc86	-0.061474346
109	0xbdb09107	-0.08621412
110	0x3d85c861	0.0653236
111	0x3ce6210e	0.028091934
112	0x3d23ae01	0.039960865
113	0x3d129073	0.03578229
114	0x3d70b75f	0.058768626
115	0x3d2a72e4	0.041613474
116	0xbda2a956	-0.079424545
117	0x3c6af400	0.014340401
118	0xbdadb8ce	-0.08482514
119	0xbda0d12f	-0.078523986
120	0xbd9c50f2	-0.076326266
121	0x3d233833	0.039848518
122	0x3b8fbf8e	0.004386849
123	0xbd255fb3	-0.04037447
124	0x3da1b8c3	0.078965686
125	0xbd48357d	-0.048879135
126	0x3d2fe3c2	0.042941816
127	0xbd460b9f	-0.048350926
128	0xbb0362cc	-0.0020047901
129	0xbd39f367	-0.045398142
130	0x3d0c09b7	0.034188952
131	0xbd8b50f1	-0.06802548
132	0x3db26071	0.08709801
133	0xbd9bc781	-0.07606412
134	0xbd20178b	-0.039084952
135	0x3ce75460	0.028238475
136	0xbcb8de20	-0.022566855
137	0xbbb07124	-0.005384581
138	0xbcb42f42	-0.02199519
139	0x3cba5db7	0.022749765
140	0x3d1d94cd	0.038471986
141	0xbd3900b8	-0.0451667
142	0x3d53b6fd	0.051688183
143	0xbc742b75	-0.014902939
144	0xbd708536	-0.05872079
145	0x3bdb7cfc	0.006698249
146	0x3ca3c45a	0.019991089
147	0xbd157d55	-0.03649648
148	0xbc97b854	-0.018520512
149	0x3cd92fb0	0.026511997
150	0x3d1bd43a	0.038044192
151	0x3c63736d	0.0138825
152	0x3cb45cd7	0.022016926
153	0x3d0f7461	0.035023097
154	0xbd692b0e	-0.056925826
155	0x3ce8f133	0.028435325
156	0xbd8f3814	-0.06993118
157	0x3d846ce9	0.064660855
158	0x3d11ed68	0.0356268
159	0xbd3cd23b	-0.04609893
160	0xbd7124ff	-0.058873173
161	0xbd26c366	-0.04071369
162	0x3c9c67b2	0.019092415
163	0x3c45223f	0.012032091
164	0xbd8b8bc0	-0.068137646
165	0x3d4cf539	0.05003855
166	0xbcb8c13d	-0.02255308
167	0xbc091772	-0.008367406
168	0x3d53fbda	0.051753856
169	0xbd547a1b	-0.05187426
170	0xbd2eac99	-0.04264507
171	0xba6dee4f	-0.0009076343
172	0x3d6ee013	0.058319163
173	0x3da46f20	0.08029008
174	0x3c019abe	0.007910429
175	0xbc72220f	-0.014778628
176	0x3d13e36f	0.03610557
177	0x3dc19522	0.09452273
178	0xbc4a6282	-0.012352588
179	0x3db10baf	0.086448066
180	0x3cec0e21	0.028815331
181	0xbae0a72d	-0.0017139666
182	0xbd9b2354	-0.07575098
183	0x3d92aee0	0.07162261
184	0x3c33cf4c	0.010974716
185	0xbd36ae54	-0.044599846
186	0xbd167cee	-0.036740236
187	0xbd2fb011	-0.04289252
188	0x3d4a4eb9	0.049391482
189	0x3cf9d519	0.03049712
190	0xbd847aef	-0.0646876
191	0x3cabba81	0.020962955
192	0x3cdba952	0.026814137
193	0x3d6d37bd	0.057914484
194	0x3c77c0ea	0.015121678
195	0x3b9f6bda	0.004865152
196	0x3d38e97f	0.045144554
197	0x3d665854	0.05623658
198	0xbc280dca	-0.010257194
199	0xbda78018	-0.08178729
200	0xbc3a44e6	-0.011368966
201	0x3d7917a3	0.060813557
202	0x3d8da1c3	0.06915619
203	0x3d288da6	0.04115071
204	0xbd049dd7	-0.03237709
205	0xbd2ab097	-0.041672315
206	0x3d349ea7	0.044096615
207	0x3cdc7be5	0.026914546
208	0xbdb19bc3	-0.08672287
209	0x3c366fb0	0.011135027
210	0x3d646e88	0.055769473
211	0xbda4f7e8	-0.08055097
212	0xbcba18d6	-0.02271692
213	0x3da01f56	0.07818477
214	0xbd05b9ec	-0.032648012
215	0x3d6fee15	0.058576662
216	0xbd93bf57	-0.072142296
217	0x3cd33f6a	0.025787074
218	0x3d722ac4	0.059122816
219	0xbce57182	-0.028008226
220	0x3b85cb98	0.004083108
221	0xbd35893c	-0.04432033
222	0xbd46a634	-0.048498347
223	0xbda33eae	-0.079709396
224	0xbd03a542	-0.032140024
225	0xbd71d5d6	-0.05904182
226	0x3d825162	0.06363179
227	0xbcb6bc4b	-0.022306582
228	0xbcb09663	-0.021556085
229	0xbd93d9ab	-0.07219251
230	0x3d30f194	0.043199137
231	0x3ca7fe13	0.020506894
232	0xbc6acc25	-0.014330898
233	0xbd862c98	-0.06551474
234	0xbcc2103b	-0.02368938
235	0x3c96f4d4	0.01842729
236	0x3db85911	0.09001363
237	0x3d6b624d	0.057466794
238	0xbd2dd71a	-0.042441465
239	0x3d90b9f3	0.07066717
240	0xbd2454ab	-0.04011981
241	0xbd09c44a	-0.03363446
242	0x3d8f5367	0.069983296
243	0xbc74fd2a	-0.014952937
244	0x3d8a6fb1	0.06759585
245	0x3d998069	0.074951954
246	0x3d5c31ac	0.05375831
247	0x3c0e66b8	0.008691482
248	0x3c75aee8	0.014995314
249	0xbd510ffa	-0.051040627
250	0x3d3d98cb	0.046288293
251	0xbd7ddfdc	-0.061981067
252	0x3ce12797	0.027484698
253	0xbd9670d3	-0.07345738
254	0x3c1fe3be	0.009758888
255	0xbcc296cc	-0.023753546

weight f4 [64, 256]
0	0x3d1a5f7b	0.037688714
1	0x3d87a222	0.06622721
2	0xbd70ac20	-0.0587579
3	0xbd4ad532	-0.049519725
4	0x3d29533f	0.041339155
5	0xbb9db814	-0.0048132036
6	0x3c2a1157	0.010380111
7	0x3c5502bf	0.013001143
8	0x3d1764c4	0.036961332
9	0x3d59b125	0.053147454
10	0xbd70b2be	-0.05876421
11	0x3cb2edab	0.021841845
12	0xbbb4642a	-0.0055051045
13	0xbd2e4680	-0.042547703
14	0x3d45fa87	0.048334625
15	0xbd4d3b27	-0.05010524
16	0x3d11fa40	0.035639048
17	0x3d570333	0.052493285
18	0xbd6e217d	-0.058137406
19	0xbbf9b729	-0.0076207113
20	0x3c787de2	0.015166732
21	0xbb579f6d	-0.0032901422
22	0x3d21d126	0.0395061
23	0xbd75d2b7	-0.060015406
24	0x3d816a27	0.06319075
25	0x3cfdd061	0.030983152
26	0x3bca5589	0.0061747474
27	0x3be75eff	0.007060885
28	0xbd7369f9	-0.059427235
29	0xbd541737	-0.051779952
30	0xbce12e80	-0.027487993
31	0xbc867092	-0.0164111
32	0x3d3fffe2	0.04687489
33	0xbc05f356	-0.008175692
34	0x3d0c2d9c	0.034223184
35	0xbbd37187	-0.0064527425
36	0x3ce45418	0.02787213
37	0x3d414f82	0.047194965
38	0x3d1502a8	0.036379486
39	0x3d738275	0.059450585
40	0xbca83f6f	-0.02053806
41	0x3cb6e082	0.02232385
42	0x3d3f38c9	0.046685014
43	0x3c81dd83	0.015852695
44	0x3c912df5	0.01772211
45	0x3d2dd9cb	0.04244403
46	0xbd32b97e	-0.04363393
47	0x3d6d7db4	0.057981208
48	0x3d147615	0.036245424
49	0x3cf5d387	0.03000809
50	0xbcf08136	-0.029358488
51	0x3d277aa6	0.04088845
52	0xbcf4856c	-0.029848777
53	0x3d7ca7af	0.061683353
54	0xbd670668	-0.056402594
55	0x3d0a7c7d	0.033810128
56	0xbc852fb5	-0.0162581
57	0x3d218ba5	0.039439816
58	0x3d4eec8c	0.050518557
59	0xbc9aad28	-0.018881395
60	0x3a713a2c	0.00092020887
61	0xbcc59adf	-0.0241217
62	0xbd5c7def	-0.053831037
63	0xbce4124c	-0.027840756
64	0x3cfcf48f	0.030878333
65	0x39d45866	0.00040501653
66	0x3d786ed5	0.060652573
67	0x3d060e1b	0.032728296
68	0xbd436b1d	-0.047709573
69	0x3ad9ce7d	0.0016617324
70	0x3c3fe42c	0.011712115
71	0x3c182a51	0.009287433
72	0xbd50389b	-0.050835233
73	0xbc8a04fe	-0.016848084
74	0x3b536099	0.0032253622
75	0xbc9f6ccd	-0.01946106
76	0xbd0742c2	-0.03302265
77	0xbd6847f5	-0.05670925
78	0x39bdd350	0.0003620633
79	0x3cc772e7	0.024346782
80	0xbc247e32	-0.010039853
81	0x3cb5ac3f	0.02217686
82	0x3b624ff1	0.0034532512
83	0xbbefb07d	-0.00731474
84	0x3d296389	0.04135469
85	0xbd1da356	-0.038485847
86	0x3b5ef8ef	0.0034022888
87	0xbd47b826	-0.048759602
88	0x3af14880	0.0018408448
89	0xbc7afd3c	-0.015319165
90	0x3d866b92	0.06563486
91	0xbd08cf02	-0.033400543
92	0xbc13242b	-0.008980791
93	0xbce46625	-0.027880738
94	0x3ccd2f70	0.025047034
95	0x3c85f947	0.016354216
96	0x3bbf307e	0.005834638
97	0xbd2fe919	-0.04294691
98	0x3d1c0943	0.03809477
99	0xbcb230ee	-0.021751847
100	0x3d702a1b	0.058633905
101	0x3d03ca25	0.032175202
102	0x3c52860a	0.01284934
103	0xbd99e1c5	-0.07513765
104	0xbce44f20	-0.027869761
105	0xbc805e07	-0.015669836
106	0x3d847752	0.06468071
107	0x3c371e82	0.011176707
108	0x3c1f0bde	0.009707419
109	0xbcc3daf0	-0.023908108
110	0xbd1b6ae5	-0.03794374
111	0x3c22aaa0	0.0099283755
112	0xbc58c695	-0.013230939
113	0xbcdd1687	-0.026988281
114	0x3d495322	0.049151547
115	0x3cde9708	0.027171627
116	0xbd6405af	-0.055669483
117	0x3cac1a15	0.02100853
118	0xbd51d8ce	-0.05123215
119	0x3d0af293	0.033922743
120	0xbd29e1c4	-0.041475073
121	0xbb90d412	-0.004419812
122	0x3d59a0e5	0.053131957
123	0x3cc07baf	0.023496477
124	0xbcf9d6ef	-0.030497996
125	0x3cc28c89	0.023748653
126	0xbd630d2c	-0.055432484
127	0xbc19f2a4	-0.009396229
128	0x3ab7d770	0.0014025997
129	0xbcf39df3	-0.029738402
130	0x3a8bf752	0.0010678566
131	0xbd57883c	-0.052620158
132	0xbce1cf44	-0.027564652
133	0xbd3d267e	-0.046179287
134	0x3cc99bba	0.024610389
135	0x3d1aa569	0.037755404
136	0xbc14ad94	-0.009074587
137	0xbb6fc9b5	-0.0036588733
138	0x3d4b4517	0.049626436
139	0xbd0503d0	-0.03247434
140	0x3d1ac099	0.03778133
141	0x3d67a9d6	0.056558453
142	0x3d54ae93	0.0519243
143	0xbd50a4c5	-0.050938386
144	0xbd3f3e7b	-0.046690445
145	0xbc262f4a	-0.0101431105
146	0x3a37972f	0.0007003424
147	0xbd888467	-0.06665879
148	0x3d7a4766	0.061103247
149	0x3cb67acb	0.02227535
150	0xbbce526d	-0.006296447
151	0xbb830b36	-0.003999139
152	0xbc14517d	-0.009052631
153	0xbcfea469	-0.031084256
154	0xbd06859a	-0.032842256
155	0x3bc7d32b	0.006098171
156	0x3c895bab	0.016767344
157	0xbb63ef76	-0.003478018
158	0x3d6fa578	0.058507413
159	0xbc346144	-0.011009518
160	0x3b2be969	0.0026231653
161	0x3abd069c	0.0014421525
162	0x3caa6b89	0.02080323
163	0x3caa1a13	0.020764386
164	0x3caf8d67	0.02142973
165	0x3c4a51ab	0.012348573
166	0xbd71c4c4	-0.05902554
167	0x3cd47f08	0.02593948
168	0x3d1ec258	0.03875956
169	0xbd4aeed1	-0.04954416
170	0xbbeefbca	-0.007293199
171	0x3d3ed6d9	0.046591613
172	0x38a460e2	7.838175e-05
173	0x3d6fa9e8	0.058511645
174	0xbd12826a	-0.035768904
175	0x3c96a78a	0.018390436
176	0x3b180212	0.0023194593
177	0xbd4062da	-0.046969272
178	0x3ceab700	0.028651714
179	0xbc483ce1	-0.012221546
180	0x3c15a19c	0.009132769
181	0xbd226268	-0.03964463
182	0xbc9e172d	-0.01929816
183	0x3d250cf3	0.040295552
184	0x3d32a1db	0.04361139
185	0xbd215c44	-0.039394632
186	0xbd2cd48a	-0.04219488
187	0xbd0afc4c	-0.033932015
188	0xbd3e776d	-0.046500612
189	0xbccfb300	-0.025353909
190	0x3d52f5e5	0.051504035
191	0x3c8a35a9	0.01687129
192	0xbcc61d7a	-0.024183977
193	0x3c584477	0.013199917
194	0xbd4692f9	-0.048480008
195	0xbcb739af	-0.022366373
196	0xbd50563a	-0.050863482
197	0x3c9be60c	0.019030593
198	0xbcf4c20b	-0.029877683
199	0xbc36944b	-0.011143754
200	0xbd276380	-0.040866375
201	0xbd3368cc	-0.043801114
202	0x3d4c945a	0.049946167
203	0x3cb6cfd7	0.022315903
204	0xbd051f64	-0.03250064
205	0x3c852771	0.016254159
206	0x3caa3a07	0.020779623
207	0x3d2a03df	0.041507598
208	0x3cbb8e89	0.022895114
209	0x3bc74817	0.006081592
210	0x3cc40d10	0.02393201
211	0x3cd1ada0	0.025595486
212	0x3d47f84f	0.04882079
213	0x3bc1071c	0.00589074
214	0x3d1200cd	0.035645295
215	0xb9c5986a	-0.00037688325
216	0xbbaa4323	-0.0051959916
217	0x3d52e98e	0.051492266
218	0x3c3efe4e	0.011657311
219	0xbcc2296e	-0.023701396
220	0x3d0ad817	0.033897486
221	0x3cdc969e	0.026927289
222	0xb9251da2	-0.00015746665
223	0xbca1f0ac	-0.019768082
224	0xbb3b9d24	-0.0028627599
225	0xbd307602	-0.04308129
226	0xbc60c5e8	-0.0137190595
227	0x3d3aed63	0.045636546
228	0xbd8bcf39	-0.06826634
229	0xbd71a690	-0.058996737
230	0xbb80a596	-0.0039259894
231	0x3d024ef9	0.031813595
232	0xbcec1e9f	-0.028823195
233	0x3d58089b	0.05274258
234	0x3d384f8e	0.044997744
235	0x3d3ab5d2	0.045583554
236	0xba7a25e5	-0.000954239
237	0x3c3c2417	0.011483214
238	0x3d5dbdaa	0.054135956
239	0x3c9a20da	0.018814493
240	0x3cf3f352	0.02977911
241	0x3b615df2	0.003438827
242	0x3d35fb53	0.044429135
243	0x3d2ab069	0.041672144
244	0xbd1ec118	-0.038758367
245	0xbc660b28	-0.014040746
246	0xbd579192	-0.05262906
247	0xba1675f3	-0.00057396217
248	0x3d6efa00	0.058343887
249	0x3d2c046a	0.041996397
250	0x3c6b5ad9	0.0143649215
251	0xbd9aade3	-0.075526975
252	0xbd258d06	-0.040417694
253	0xbd08283b	-0.03324149
254	0x3d4ecb66	0.050486945
255	0xbd623619	-0.055227373

bias f4 [64]
0	0x3c7135fa	0.014722342
1	0xbd65bf10	-0.056090415
2	0xbc4767a4	-0.012170706
3	0xbbaffb22	-0.0053705135
4	0x3d38efb6	0.04515048
5	0x3d51cfc8	0.051223546
6	0x3c8fdd62	0.017561618
7	0x3bf70a9b	0.007539106
8	0xbd64f0f8	-0.05589387
9	0xbd69b9f5	-0.057062108
10	0xbd290626	-0.04126563
11	0xbd80304f	-0.06259214
12	0x3d1996f0	0.03749746
13	0xbcc738f7	-0.024319155
14	0xbd67e38f	-0.0566135
15	0xbbb77d34	-0.005599642
16	0x3d6154d7	0.05501255
17	0xba8fa238	-0.0010958379
18	0x3cc5e0e6	0.024155091
19	0x39a0585a	0.00030583405
20	0xbd4c9d5f	-0.04995477
21	0x3cd066c1	0.025439622
22	0x3cc55741	0.024089457
23	0xbd61eb5a	-0.05515609
24	0x3c4097e4	0.011754964
25	0x3cd01a40	0.025403142
26	0x3c1ee9ee	0.009699328
27	0xbd7d5033	-0.061844062
28	0x3d1f739c	0.038928613
29	0x3c33de00	0.010978222
30	0xbc9f462c	-0.01944264
31	0x3d352dee	0.044233255
32	0x3d45ccc3	0.04829098
33	0x3bebf85d	0.007201238
34	0xbd3ffcb0	-0.04687184
35	0xbd0974cd	-0.033558656
36	0xbc2a2d02	-0.010386707
37	0x3d2dddcf	0.04244786
38	0x3cf174f1	0.029474707
39	0x3d4f0488	0.05054143
40	0xbc14fb3c	-0.009093102
41	0x3d66f2bc	0.056383833
42	0xbcd2e97c	-0.0257461
43	0x3cbb386f	0.022854058
44	0xbca29f6e	-0.019851413
45	0xbd2c1728	-0.04201427
46	0x3d1639d9	0.03667626
47	0x3d14124a	0.036150254
48	0x3bf5a55b	0.0074965185
49	0xbc93f553	-0.018061316
50	0xbd6cf8a5	-0.057854313
51	0x3c8d6a5f	0.017262636
52	0x3d6688f7	0.056282964
53	0x3d20566a	0.03914491
54	0xbcbade4d	-0.02281108
55	0xbbb7c1e0	-0.0056078285
56	0xbd52c0c8	-0.05145338
57	0xbcf40f3f	-0.029792426
58	0xbc00be9f	-0.007857948
59	0xbd42a571	-0.04752106
60	0xbd0a249c	-0.03372632
61	0x3d07aaea	0.03312198
62	0x3d49a33b	0.049227934
63	0x3ca3bfd3	0.01998893

weight f4 [1, 64]
0	0xbb3cffc3	-0.002883897
1	0x3de055fd	0.10953901
2	0xbd62a0e8	-0.055329233
3	0x3dd966a1	0.10615278
4	0x3db6fb02	0.08934595
5	0x3d0a1d76	0.033719502
6	0xbb4a0675	-0.0030826603
7	0x3a299d0c	0.000647024
8	0xbdd1db4a	-0.10246904
9	0xbcb97158	-0.022637054
10	0xbdb313fe	-0.087440476
11	0x3d8f2b58	0.06990689
12	0xbd8d8df0	-0.06911838
13	0x3d331429	0.043720398
14	0xbd1c3e29	-0.038145218
15	0x3c243268	0.010021783
16	0xbd526fdd	-0.051376212
17	0x3b7760d3	0.003774692
18	0xbc3eccda	-0.01164552
19	0x3d83bc9b	0.06432458
20	0xbdd62528	-0.10456306
21	0x3cb57a9a	0.022153188
22	0xbde6f9cd	-0.112781145
23	0x3d8cff4a	0.0688463
24	0x3b8b0aee	0.0042432463
25	0xbd40b965	-0.047051806
26	0x3cbbb005	0.022911081
27	0xbac059a5	-0.0014675154
28	0xbd026b5c	-0.031840667
29	0x3db16771	0.08662308
30	0xbdbbe190	-0.09173882
31	0xbdcfba99	-0.101430126
32	0xbd99646d	-0.07489858
33	0xbdaff6ad	-0.085919715
34	0xbdc60d8f	-0.09670555
35	0xbdb55651	-0.08854354
36	0x3d674c18	0.056469053
37	0xbb8be8ef	-0.004269711
38	0x3c047242	0.008083882
39	0x3d95de09	0.073177405
40	0xbb6e2e0c	-0.0036343364
41	0x3cbd727d	0.023125881
42	0xbd2cfcd6	-0.04223331
43	0x3d2b7108	0.041855842
44	0xbd58d9f4	-0.05294223
45	0xbc55b267	-0.013043023
46	0x3d6741b8	0.05645916
47	0x3dd52856	0.10408084
48	0xbb9dba32	-0.004813456
49	0xbc8ea144	-0.017410882
50	0x3bc27dab	0.005935391
51	0xbc81c6d4	-0.015841879
52	0xbd9ef4f0	-0.07761562
53	0xbc2dfe73	-0.010619747
54	0x3d369418	0.044574827
55	0xbda4822c	-0.08032641
56	0x3d99a597	0.07502287
57	0xbdb8522a	-0.090000466
58	0xbc1825fa	-0.009286398
59	0x3dd69036	0.10476725
60	0xbdc0ed29	-0.09420235
61	0xbcdb288e	-0.026752736
62	0xbd9039bd	-0.07042263
63	0xbb2d19b6	-0.002641303
